models/teacher/S2_net_att.pt (torch, 207896 bytes, 25 tensors)

conv1.0.weight f4 [16, 1, 9, 1]
0.14922604 -0.12923685 -0.12056583 0.24028811 -0.29802752 -0.19675386 -0.2984431 0.0039081722
0.21763785 0.32499683 0.06999729 -0.2110522 -0.30378783 0.33258447 -0.15809242 -0.2748425
-0.17231359 -0.24562249 0.32217717 0.3166484 0.2290914 -0.012486087 0.14791606 0.16695152
0.2035528 -0.06884266 -0.20579998 -0.067508124 0.14052333 0.13936812 -0.16758378 -0.19983806
-0.23732638 0.077803776 0.19107474 0.3250763 0.19004776 -0.2741122 0.10397928 0.04507369
-0.06304311 0.29415327 -0.16127162 -0.18758492 -0.12883042 0.20941022 -0.2218211 -0.046130028
0.066844545 -0.012452882 -0.2330345 -0.061611667 -0.3167132 0.093378074 -0.25965557 0.076791584
-0.28612173 -0.04699447 -0.3151762 -0.078085266 -0.29699436 0.19559291 -0.06307032 0.11974233
-0.0072213216 -0.053701665 0.043493874 -0.13906342 0.2387503 0.08156055 0.13204077 -0.07629091
-0.22343892 0.2447398 0.086349644 0.12569992 0.2549803 -0.08154086 -0.013123921 -0.18344538
0.16780856 -0.26764485 0.024463551 -0.097907335 0.16654892 0.03869183 0.1497672 -0.015748404
-0.25153533 0.046353057 0.15108848 0.283379 0.07690071 -0.17735167 -0.1768684 -0.034849737
0.0441516 -0.32385042 0.21494712 0.15267561 -0.23216046 0.24304572 -0.12656258 0.20432909
0.19184262 -0.056888755 0.16296709 -0.044114847 -0.24912216 -0.28722024 -0.21029133 -0.14218989
0.07352095 0.26654273 -0.0012893039 -0.15326029 0.21010488 0.1120414 0.31873733 -0.31585428
0.037857234 -0.11628946 0.104751416 -0.17906108 0.14433263 0.017960105 0.3307565 0.20452394
-0.27831718 0.308163 -0.16941635 0.07760464 0.3069644 -0.11141218 -0.25511682 0.2826781
-0.23196667 0.08831727 0.2921153 -0.004745994 -0.05608072 -0.26665425 0.0048616654 0.04957236
00000000: b6ce 183e aa56 04be 38eb f6bd 160e 763e
00000010: 1097 98be d879 49be 89cd 98be 2010 803b
00000020: 75dc 5e3e fc65 a63e bd5a 8f3d 111e 58be
00000030: 148a 9bbe 8348 aa3e fbe2 21be 28b8 8cbe
00000040: f972 30be 7684 7bbe 68f4 a43e bd1f a23e
00000050: f096 6a3e 7292 4cbc 4f77 173e 57f5 2a3e
00000060: 2570 503e 61fd 8cbd 3bbd 52be b341 8abd
00000070: 59e5 0f3e 84b6 0e3e 159b 2bbe 59a2 4cbe
00000080: b005 73be 9657 9f3d 19a9 433e 6770 a63e
00000090: e19b 423e 6f58 8cbe 17f3 d43d 319f 383d
000000a0: bf1c 81bd 429b 963e 6324 25be 4316 40be
000000b0: 1fec 03be a26f 563e 1225 63be d7f2 3cbd
000000c0: cbe5 883d 2c07 4cbc 99a0 6ebe 845c 7cbd
000000d0: 3c28 a2be 013d bf3d 93f1 84be e844 9d3d
000000e0: 8c7e 92be 467d 40bd c65e a1be 2beb 9fbd
000000f0: a50f 98be 8249 483e 032b 81bd 773b f53d
00000100: d6a0 ecbb 47f6 5bbd a226 323d a466 0ebe
00000110: f57a 743e 3809 a73d b235 073e 693e 9cbd
00000120: 2ccd 64be 129d 7a3e 15d8 b03d 7bb7 003e
00000130: c78c 823e e5fe a6bd b705 57bc 1bd9 3bbe
00000140: 02d6 2b3e bf08 89be c967 c83c a483 c8bd
00000150: cd8b 2a3e 537b 1e3d 935c 193e cc02 81bc
00000160: 3dc9 80be b4dc 3d3d f0b6 1a3e 0d17 913e
00000170: 1f7e 9d3d ad9b 35be fd1c 35be 99be 0ebd
00000180: 4fd8 343d b9cf a5be 191b 5c3e ff56 1c3e
00000190: 79bb 6dbe fae0 783e 9f99 01be a53b 513e
000001a0: 6472 443e 2f04 69bd d8e0 263e c5b1 34bd
000001b0: e119 7fbe 880e 93be 9c56 57be 3a9a 11be
000001c0: 2792 963d 4a78 883e dcfd a8ba 44f0 1cbe
000001d0: bc25 573e f675 e53d 8a31 a33e a7b7 a1be
000001e0: 3010 1b3d 2b29 eebd e987 d63d ca5b 37be
000001f0: efcb 133e 1221 933c ea58 a93e b96e 513e
00000200: 977f 8ebe 8ac7 9d3e 7b7b 2dbe 2eef 9e3d
00000210: 702a 9d3e 122c e4bd ac9e 82be 2fbb 903e
00000220: ac88 6dbe afdf b43d 2390 953e 4984 9bbb
00000230: e6b4 65bd e886 88be 9b4e 9f3b 630c 4b3d

conv1.0.bias f4 [16]
-0.078294374 -0.1409648 0.3250308 -0.10665968 0.09462755 0.054688115 0.1440443 0.10230728
-0.3125819 0.22584458 0.18355668 0.3231741 0.022083322 0.26868722 0.15918133 0.22105275
00000000: cd58 a0bd 1459 10be 706a a63e 6470 dabd
00000010: 17cc c13d a500 603d 5980 133e 7b86 d13d
00000020: bc0a a0be cd43 673e 48f6 3b3e 1377 a53e
00000030: 15e8 b43c 5f91 893e 6e00 233e a75b 623e

conv1.2.weight f4 [32, 16, 1, 9]
0.0320633 -0.08100649 0.064648114 0.045402016 -0.038499836 0.015155685 -0.025785932 -0.06744072
-0.04908807 0.012401096 -0.082274884 0.08245563 0.074590474 0.04013976 0.07690232 -0.01868608
0.06264063 -0.045004833 0.055674233 -0.0052280515 -0.017579034 0.05210482 -0.040052276 -0.06665726
-0.06748458 0.018864874 0.042049725 0.010042912 -0.008736859 0.07045563 -0.056956824 -0.031027786
-0.011150963 0.05633826 -0.04042239 -0.05422658 -0.00024381431 0.0363664 -0.030216405 -0.04559863
-0.012229335 -0.032781325 0.04662866 0.0709317 0.009864392 -0.026192103 0.05823392 -0.042081736
0.063843176 0.08058558 -0.023780888 -0.039102096 -0.052608572 0.067267045 -0.047835875 -0.015862191
-0.028349595 0.05839692 -0.06854686 -0.081442356 0.036210563 -0.022419274 -0.028688686 0.05210965
0.051922273 -0.05763351 -0.028212387 0.02344998 -0.034278862 0.045690555 0.01331748 0.005525126
-0.0024201695 -0.013081717 0.06939212 0.027532974 0.0100610545 0.04050757 0.002514797 0.0035886073
-0.03481886 0.025880208 -0.05087142 -0.05225102 -0.022134336 -0.030762449 0.08373798 -0.0019051274
-0.06583379 -0.022177158 -0.01826499 0.044144355 -0.08081127 0.07819676 0.04976399 -0.027162693
-0.069238 -0.05351407 -0.05276176 0.08049122 0.008888828 -0.0035372474 0.05066121 -0.0396135
0.05501301 0.028164964 0.020467889 0.033715896 0.07356067 -0.046690423 -0.028052706 0.06605409
-0.016176281 0.015970806 -0.04106141 -0.04609187 -0.013528143 0.0488347 0.057926375 -0.07707471
0.019216565 0.06900378 -0.02537236 -0.040874295 0.027647797 0.034809653 0.048394073 -0.067251034
-0.033376303 -0.056944836 0.07526572 -0.045695707 0.06850677 -0.07802315 0.048377227 0.0338059
-0.06627178 -0.033799954 0.05024409 0.02157001 -0.025198689 -0.055220462 -0.009700654 -0.02723285
-0.008476625 -0.03131148 -0.009040786 0.017006 -0.047407832 0.017354742 -0.06074594 0.017561432
0.006697558 -0.050504453 0.020888783 0.06944346 -0.040276356 0.08458949 0.06519493 0.01819442
0.06560782 0.015056624 -0.047459222 -0.019669918 -0.06597478 0.080964915 -0.07196289 0.03467009
0.011149382 0.04845277 -0.049320165 0.04598935 0.016952321 0.06854023 -0.040269308 0.019173222
0.021620242 0.030688059 -0.03710197 -0.04654722 -0.041013625 -0.024436772 0.071571186 0.06310342
0.035505097 -0.05613443 0.01168327 -0.03679569 -0.07688723 0.08328317 0.040665086 -0.040287904
0.04411651 -0.058172554 0.009949152 -0.0058462014 -0.053035066 -0.067188084 0.0227371 0.03105421
-0.040951394 0.0040674643 -0.070321426 0.00768793 -0.060436923 0.074737206 -0.06547977 0.07892631
-0.049963582 -0.045152746 -0.021012569 -0.07299648 -0.03361545 -0.07048132 -0.023114515 0.031527217
0.058463376 0.050794214 0.052980933 0.048903804 -0.04666322 -0.022405468 -0.06506678 0.018984571
0.03598012 -0.019890541 0.047114033 -0.0007189097 -0.06959643 -0.030692317 0.07092885 0.04035845
0.04809221 0.016411532 -0.0806742 0.029676683 -0.056564923 -0.06245384 -0.059563845 -0.036112044
-0.04978523 0.06848311 -0.026551712 -0.0748874 0.023316316 -0.050456606 -0.04985841 -0.03487191
0.03333808 0.023043571 -0.019561877 -0.01819161 -0.060216922 -0.06207287 0.050747994 -0.068026535
00000000: cf54 033d bbe6 a5bd 3b66 843d 77f7 393d
00000010: 01b2 1dbd 8d4f 783c 053d d3bc 5c1e 8abd
00000020: 9210 49bd f72d 4b3c bc7f a8bd 7fde a83d
00000030: e4c2 983d 9769 243d f77e 9d3d 8d13 99bc
00000040: bb49 803d fd56 38bd aa0a 643d 1350 abbb
00000050: e801 90bc dd6b 553d db0d 24bd 9a83 88bd
00000060: 5b35 8abd 828a 9a3c 553c 2c3d 078b 243c
00000070: 0b25 0fbc 0b4b 903d 8f4b 69bd fc2d febc
00000080: 87b2 36bc f3c2 663d f391 25bd b11c 5ebd
00000090: 68a8 7fb9 eff4 143d 6588 f7bc a1c5 3abd
000000a0: 8c5d 48bc b645 06bd b2fd 3e3d a444 913d
000000b0: 429e 213c d290 d6bc b186 6e3d e65d 2cbd
000000c0: 36c0 823d 0d0a a53d 23d0 c2bc 8529 20bd
000000d0: 167c 57bd 4ec3 893d 8def 43bd 6df1 81bc
000000e0: 693d e8bc 9c31 6f3d 4c62 8cbd 40cb a6bd
000000f0: 8751 143d a0a8 b7bc 8904 ebbc ee70 553d
00000100: 73ac 543d 1e11 6cbd aa1d e7bc 2c1a c03c
00000110: fe67 0cbd 0526 3b3d 8f31 5a3c 1e0c b53b
00000120: b59b 1ebb b354 56bc 751d 8e3d d58c e13c
00000130: 1fd7 243c 44eb 253d 4bcf 243b d72e 6b3b
00000140: 399e 0ebd bb02 d43c 8d5e 50bd 2a05 56bd
00000150: 1153 b5bc 8801 fcbc d17e ab3d 78b5 f9ba
00000160: ded3 86bd dfac b5bc 76a0 95bc b6d0 343d
00000170: 6180 a5bd 9f25 a03d 53d5 4b3d 4c84 debc
00000180: a7cc 8dbd 9231 5bbd b71c 58bd 95d8 a43d
00000190: 72a2 113c 2ad1 67bb 2182 4f3d c441 22bd
000001a0: 5255 613d 36ba e63c 46ac a73c ae19 0a3d
000001b0: faa6 963d 753e 3fbd cace e5bc 5e47 873d
000001c0: 1f84 84bc 35d5 823c 0230 28bd d4ca 3cbd
000001d0: 25a5 5dbc e506 483d 3544 6d3d 58d9 9dbd
000001e0: 0f6c 9d3c db51 8d3d b2d9 cfbc ce6b 27bd
000001f0: a27d e23c 9194 0e3d dd38 463d e9ba 89bd
00000200: 97b5 08bd fd3e 69bd ea24 9a3d 6c2b 3bbd
00000210: 474d 8c3d 9aca 9fbd 3327 463d 0e78 0a3d
00000220: 80b9 87bd d271 0abd bfcc 4d3d 97b3 b03c
00000230: 7b6d cebc da2e 62bd 7eef 1ebc 6d17 dfbc
00000240: 8be1 0abc 7740 00bd ce1f 14bc 2b50 8b3c
00000250: b72e 42bd 882b 8e3c bcd0 78bd fedc 8f3c
00000260: 3077 db3b c2dd 4ebd f41e ab3c 5f38 8e3d
00000270: d2f8 24bd 413d ad3d eb84 853d 770c 953c
00000280: 655d 863d 0fb0 763c 9a64 42bd cf22 a1bc
00000290: c91d 87bd efd0 a53d 4861 93bd 3902 0e3d
000002a0: e6ab 363c 6976 463d f103 4abd 545f 3c3d
000002b0: 98df 8a3c d25e 8c3d 6ef1 24bd 2911 9d3c
000002c0: ef1c b13c 8665 fb3c 3cf8 17bd 4ca8 3ebd
000002d0: e7fd 27bd a02f c8bc ea93 923d 5e3c 813d
000002e0: cb6d 113d 37ed 65bd 306b 3f3c 14b7 16bd
000002f0: 0d77 9dbd 5e90 aa3d 6f90 263d ee04 25bd
00000300: 83b3 343d 5846 6ebd c501 233c 7e91 bfbb
00000310: 4c3b 59bd e899 89bd 2843 ba3c 6665 fe3c
00000320: a6bc 27bd 5d48 853b ae04 90bd 08eb fb3b
00000330: b58c 77bd d20f 993d 421a 86bd 1ea4 a13d
00000340: 9da6 4cbd 16f2 38bd 8d22 acbc 2e7f 95bd
00000350: 5bb0 09bd 8358 90bd a75a bdbc af22 013d
00000360: 4b77 6f3d 980d 503d 8902 593d 5b4f 483d
00000370: ef21 3fbd ac8b b7bc bb41 85bd 8885 9b3c
00000380: e45f 133d 7df1 a2bc a5fa 403d 3775 3cba
00000390: 9388 8ebd 746e fbbc 2543 913d e74e 253d
000003a0: 56fc 443d 7a71 863c 8438 a5bd 841c f33c
000003b0: 9fb0 67bd 99cf 7fbd 38f9 73bd 39ea 13bd
000003c0: 99eb 4bbd df40 8c3d fa82 d9bc 915e 99bd
000003d0: dc01 bf3c 96ab 4ebd 5538 4cbd d9d5 0ebd
000003e0: 838d 083d dfc5 bc3c 3b40 a0bc 9206 95bc
000003f0: 05a6 76bd 1f40 7ebd 21dd 4f3d 7f51 8bbd

conv1.2.bias f4 [32]
0.0060388003 -0.0341291 -0.062809415 0.02955512 0.008508924 -0.064639375 -0.067609414 0.0030852805
-0.05422414 -0.07861361 -0.014555854 -0.027127855 0.056409176 0.038341217 0.023064895 0.06729968
-0.02665809 0.07324749 0.026175175 -0.04706815 0.0500577 0.037127454 0.051199406 0.0697854
0.019990548 0.035333354 0.07135154 0.072164945 0.07179816 -0.01276366 0.065639414 0.018659985
00000000: 21e1 c53b f5ca 0bbd 39a2 80bd 941d f23c
00000010: 0469 0b3c a661 84bd ce76 8abd 6b32 4a3b
00000020: 221a 5ebd 2c00 a1bd ad7b 6ebc 3c3b debc
00000030: 4f0d 673d ae0b 1d3d 97f2 bc3c 6ad4 893d
00000040: 1162 dabc c802 963d 526d d63c 88ca 40bd
00000050: 4e09 4d3d f512 183d 78b6 513d a6eb 8e3d
00000060: 38c3 a33c b5b9 103d c220 923d 37cb 933d
00000070: ea0a 933d ac1e 51bc f56d 863d d3dc 983c

conv2.0.weight f4 [32, 32, 9, 1]
-0.05166482 -0.033582177 -0.017538877 0.004637399 0.04749665 0.061297465 0.03163112 -0.0031664832
0.01233126 0.04499165 0.04192397 -0.00801359 0.02985455 0.01906729 0.017893441 -0.011348558
0.025284225 -0.037102435 0.056217235 -0.0040008393 -0.05621407 0.056687877 0.028290195 0.015501594
0.018489165 -0.008318579 0.042708088 0.0012362186 -0.05385713 -0.05168592 -0.021048333 0.04977634
-0.053157367 -0.041970525 0.036689498 -0.042198166 0.050814845 0.024951786 0.018838784 -0.05555814
-0.021212561 0.04138391 0.05105395 0.012379989 -0.0004764337 -0.017352456 0.05679879 -0.04696775
-0.024514819 -0.041221768 -0.030320974 -0.05844474 -0.0002759099 0.018705096 -0.035786815 0.023501405
-0.0050567035 -0.030958463 -0.042367205 0.014468524 -0.055691592 -0.026032979 -0.0052793697 0.03441713
-0.02450353 0.04285295 0.010242448 -0.013824354 0.014125696 0.010529206 -0.017295899 -0.046199523
0.051623058 -0.01256367 0.017927699 -0.05639801 -0.024647001 0.04993276 0.057014454 0.05717177
-0.020338569 0.016752368 -0.028341468 0.017808829 0.01990566 0.030270873 -0.044683695 0.041007657
0.015298344 0.057407193 0.0443088 -0.02001171 -0.014676026 0.014812986 -0.04253349 -0.0050338204
-0.05681209 -0.054274496 -0.018734792 0.015562352 0.04020249 -0.0010229108 0.015514109 0.04617406
0.04985714 -0.0123591935 -0.046277855 0.04602973 -0.0061561726 0.0038517194 0.02348926 -0.025264654
-0.058347467 -0.03837223 0.047199816 0.04751887 0.024458537 0.022742784 -0.057095025 0.015215039
0.031231647 0.014833636 0.010181726 0.023146823 0.02922101 0.051830344 0.013908149 0.0296342
-0.006656708 0.055675615 0.03647076 -0.022547815 -0.005931685 -0.0038220207 -0.036664814 -0.03816337
-0.052751593 -0.054866496 -0.032386392 0.007025475 0.04421281 0.023742013 0.019520806 0.02054571
-0.023925511 -0.059797257 -0.01736058 0.055079427 0.01012533 -0.04820405 -0.016885173 0.02477723
0.031560894 0.018445479 -0.037011817 -0.0121442685 -0.011806745 0.051577248 0.037065838 -0.04016107
0.039913524 -0.026086267 -0.016531423 0.017761076 0.034279965 0.058353398 0.009905727 -0.055818867
-0.0013803482 0.05411783 -0.021586526 0.029389556 0.0321042 0.03554942 -0.05166523 0.0116026765
0.033669904 -0.04255903 0.04598445 0.056319952 -0.021646116 -0.033226475 -0.007464533 0.008958316
0.02552137 -0.04964211 -0.030486543 0.04416559 -0.003107276 0.0069200415 0.016577674 -0.04002167
0.055537358 -0.047723588 -0.023203589 -0.020660281 -0.005915664 0.027763639 -0.015972637 -0.018763479
0.04868192 -0.006952363 0.04496282 -0.011410969 0.02304281 0.0048698583 0.048735537 -0.02031314
0.008901228 -0.028006997 -9.5744595e-05 -0.015290731 0.013904793 0.010395171 0.03950005 0.0604088
-0.014186667 -0.0056716325 -0.05590514 0.05273624 0.05239992 -0.032331385 -0.04121805 0.057799164
0.029086981 0.041366037 -3.510697e-05 -0.050633635 -0.04395489 -0.04292494 0.022708848 -0.013573414
-0.015515093 0.005480294 -0.030053115 -0.0066644102 -0.03287925 0.008588376 0.031240607 0.032410465
0.0067482856 -0.003868827 0.057562828 0.007914577 -0.037235092 -0.052222647 0.033224568 -0.022094237
-0.042990863 -0.0025042177 0.01466129 -0.054628186 -0.026268227 0.015108198 0.024047293 -0.022987997
00000000: 7e9e 53bd 778d 09bd b1ad 8fbc 53f5 973b
00000010: d98b 423d 0d13 7b3d a28f 013d c684 4fbb
00000020: 0e09 4a3c 2a49 383d 78b8 2b3d 6f4b 03bc
00000030: 8791 f43c 0133 9c3c 4495 923c 4def 39bc
00000040: dd20 cf3c b9f8 17bd 0b44 663d 7919 83bb
00000050: ba40 66bd 8c31 683d d7c0 e73c 66fa 7d3c
00000060: 9776 973c a64a 08bc adee 2e3d 9d08 a23a
00000070: 4b99 5cbd 9eb4 53bd 8e6d acbc 47e2 4b3d
00000080: 8abb 59bd 49e9 2bbd ba47 163d fcd7 2cbd
00000090: 3a23 503d b067 cc3c cb53 9a3c ef90 63bd
000000a0: f7c5 adbc 2d82 293d f21d 513d 70d5 4a3c
000000b0: d9c9 f9b9 bd26 8ebc d9a5 683d 4161 40bd
000000c0: 4dd3 c8bc 28d8 28bd b163 f8bc c063 6fbd
000000d0: 00a8 90b9 6e3b 993c 3295 12bd 0586 c03c
000000e0: b4b2 a5bb 9a9c fdbc 3c89 2dbd 630d 6d3c
000000f0: de1c 64bd 1d43 d5bc 90fe acbb faf8 0c3d
00000100: a0bb c8bc 9386 2f3d f1cf 273c 8b7f 62bc
00000110: 776f 673c b182 2c3c 21b0 8dbc b63b 3dbd
00000120: b372 533d dad7 4dbc 1cdd 923c 9a01 67bd
00000130: 82e8 c9bc 4b86 4c3d fd87 693d f22c 6a3d
00000140: 129d a6bc 433c 893c 5e2c e8bc d2e3 913c
00000150: 3211 a33c 9ffa f73c 4006 37bd a5f7 273d
00000160: e8a5 7a3c ce23 6b3d 257d 353d 99ef a3bc
00000170: b773 70bc 2bb2 723c 9937 2ebd bff2 a4bb
00000180: cbb3 68bd ef4e 5ebd b579 99bc 3cf9 7e3c
00000190: 5eab 243d 3113 86ba e42e 7e3c 0321 3d3d
000001a0: 0037 4c3d 377e 4abc d98d 3dbd ac89 3c3d
000001b0: b8b9 c9bb 216d 7c3b 8c6c c03c d2f7 cebc
000001c0: c1fd 6ebd 332c 1dbd 9854 413d 26a3 423d
000001d0: 455d c83c 134f ba3c 79dc 69bd 8048 793c
000001e0: 83d9 ff3c c708 733c 41d1 263c 689e bd3c
000001f0: e660 ef3c 0e4c 543d 01df 633c 6cc3 f23c
00000200: 8420 dabb 1d0c 643d 5d62 153d 32b6 b8bc
00000210: 955e c2bb de7a 7abb d82d 16bd 3251 1cbd
00000220: 0e12 58bd b1bb 60bd 98a7 04bd f535 e63b
00000230: 7e18 353d 9c7e c23c 19ea 9f3c 7a4f a83c
00000240: 6fff c3bc f8ed 74bd c637 8ebc f79a 613d
00000250: b6e4 253c 9c71 45bd c652 8abc 9ef9 ca3c
00000260: ff45 013d f91a 973c b499 17bd c1f8 46bc
00000270: 1471 41bc aa42 533d 59d2 173d ef7f 24bd
00000280: 5d7c 233d deb2 d5bc e86c 87bc ad7f 913c
00000290: 2669 0c3d f903 6f3d a14b 223c 53a2 64bd
000002a0: cdec b4ba a8aa 5d3d 3ad6 b0bc 5ec2 f03c
000002b0: b27f 033d 459c 113d ec9e 53bd 2719 3e3c
000002c0: 74e9 093d 6152 2ebd 315a 3c3d c0af 663d
000002d0: 3253 b1bc 7c18 08bd 0b99 f4bb e7c5 123c
000002e0: 3112 d13c 8655 4bbd eabe f9bc fae6 343d
000002f0: 71a3 4bbb 84c1 e23b e7cd 873c c3ed 23bd
00000300: 247b 633d cf79 43bd 7415 bebc c03f a9bc
00000310: 30d8 c1bb 9270 e33c 0cd9 82bc deb5 99bc
00000320: b166 473d a6d0 e3bb ef2a 383d 13f5 3abc
00000330: 46c4 bc3c 5593 9f3b ea9e 473d be67 a6bc
00000340: 75d6 113c ee6e e5bc 7dca c8b8 f985 7abc
00000350: eed0 633c 8250 2a3c ceca 213d 386f 773d
00000360: 326f 68bc 1ad9 b9bb cafc 64bd f501 583d
00000370: 4ca1 563d ea6d 04bd 42d4 28bd d1be 6c3d
00000380: d247 ee3c 6f6f 293d d23f 13b8 3765 4fbd
00000390: 0b0a 34bd 10d2 2fbd e807 ba3c 0663 5ebc
000003a0: 0433 7ebc 0a94 b33b f331 f6bc 2061 dabb
000003b0: 64ac 06bd 43b6 0c3c 4dec ff3c d6c0 043d
000003c0: b920 dd3b 258c 7dbb 00c7 6b3d 24ac 013c
000003d0: d383 18bd 6ae7 55bd 7c16 083d f9fe b4bc
000003e0: 3017 30bd cd1d 24bb e835 703c cec1 5fbd
000003f0: 7730 d7bc 6088 773c d4fe c43c 5351 bcbc

conv2.0.bias f4 [32]
0.05925553 0.04135274 0.008686994 -0.030102232 -0.0041935737 0.045941126 0.057848155 0.045764197
-0.058143258 0.028174508 0.054589745 -0.0045073726 -0.020585379 -0.049291432 -0.0018549758 0.0077566323
0.053934857 0.019614827 0.05459395 -0.016468924 0.01959106 0.04840271 -0.025138134 2.1577947e-05
-0.0037558416 -0.0029518234 0.028212804 -0.040810566 -0.018943336 0.04143129 0.032523017 0.0034822118
00000000: edb5 723d 7e61 293d e553 0e3c f598 f6bc
00000010: 3f6a 89bb c32c 3c3d 30f2 6c3d 3d73 3b3d
00000020: a027 6ebd 3ace e63c 7f99 5f3d 95b2 93bb
00000030: aba2 a8bc d0e5 49bd a922 f3ba 592b fe3b
00000040: ccea 5c3d 46af a03c e89d 5f3d d6e9 86bc
00000050: 6e7d a03c ec41 463d 7dee cdbc 4a02 b537
00000060: 9124 76bb 6173 41bb 8a1e e73c fb28 27bd
00000070: 0e2f 9bbc dbb3 293d db36 053d d235 643b

conv2.2.weight f4 [32, 32, 1, 9]
0.041806247 -0.028789926 -0.059854895 -0.0067074723 0.011411619 -0.0033653644 -0.008213976 0.0007676062
0.006231475 -0.049106814 -0.0058766687 0.014689792 0.027343974 0.030194413 -0.03048461 -0.011354672
0.051965144 0.041794136 0.047020704 -0.040153008 -0.0070484225 -0.044934113 -0.028774248 0.04575327
-0.0025870455 -0.046442233 -0.045865104 -0.031474203 -0.021088079 -0.0031574476 0.03874517 0.00365872
-0.041889228 0.03349675 0.012639476 0.008639778 0.05072643 0.048076168 -0.03831488 -0.0013474158
0.03499669 0.050060365 -0.048819378 0.0050785905 0.055112354 -0.0005598904 0.016162382 -0.033108365
0.0017288735 0.03205663 0.028450452 0.03517844 -0.044763412 -0.03522391 0.022357095 -0.0037353146
0.03874352 0.020788942 -0.051834457 -0.02547268 0.018065885 0.0029903813 -0.048818436 0.053673405
0.057056393 0.04786282 -0.0052280338 -0.032883283 -0.039633576 0.022836993 -0.016808644 0.037657335
0.022620913 0.028294435 -0.022040194 -0.0075651556 0.020542407 0.022796178 -0.02624287 -0.053171445
-0.022446256 0.007001728 -0.049824517 -0.04899058 0.038082257 -0.026122408 0.011300102 -0.00720194
-0.03190632 -0.055260625 0.0014834366 0.019240677 -0.054293405 -0.021094209 -0.026863068 -0.03933711
-0.0051375437 -0.036789317 -0.018006466 0.02216634 -0.05344288 0.009705357 -0.03135001 -0.0027679808
-0.02729046 -0.054767113 -0.060341515 0.052085582 -0.005250502 0.03958398 -0.05256426 0.0137425875
-0.041586258 0.04245322 -0.05732281 0.04774423 -0.012539834 -0.05213549 0.040567193 -0.047314297
0.014306059 -0.02687355 -0.03638495 -0.03483331 0.0060958434 0.0018886502 0.0277098 0.03890996
-0.021797605 0.031017749 0.04268786 -0.02721467 0.05378332 -0.027595427 -0.04682022 0.005852079
0.059124663 0.029488305 0.01814792 0.03083359 0.00010891822 -0.020438684 -0.047493618 0.052292217
0.028657692 0.02673052 -0.050816376 0.033319887 -0.018056085 0.018393569 0.030061467 -0.059754495
0.010061162 0.0062524313 -0.01328797 0.039268497 0.009451163 0.056639884 -0.021347167 -0.024989896
-0.019799447 -0.040306598 0.0380204 0.04206027 0.047884915 -0.053954493 0.048164066 0.047055516
0.03109467 0.059294943 -0.02623153 0.01635568 0.03891406 0.012328802 -0.00846512 -0.0035241388
-0.052632295 -0.019322045 -0.0132400645 -0.052924477 -0.041699067 -0.03413117 -0.014178702 -0.020706529
-0.045020953 -0.0007015084 -0.009744667 -0.046190742 -0.012777332 -0.045352977 -0.041172586 0.039819174
0.0195853 0.03513133 0.012813127 -0.003690496 -0.012401704 0.010185294 0.0321844 0.012594356
0.040770132 0.050530665 0.011710824 -0.0056383586 -0.009028312 0.022049835 0.036066245 -0.040253032
0.007867495 0.046359602 0.038200993 0.025034396 -0.02519982 -0.024762245 -0.0056946836 -0.0034864496
0.016069237 0.030161072 0.0489565 0.025274387 0.014084815 -0.04371066 -0.020566368 0.01954606
-0.028856985 0.03865064 -0.044223566 0.008380889 -0.048532717 0.056095954 0.017728344 0.05409415
-0.028607653 -0.010646238 0.02668429 -0.054167647 0.024462482 -0.054040354 0.043903437 -0.03548655
7.5198004e-06 -0.027247183 0.012917574 -0.05724828 -0.05425765 0.045843773 0.009509415 0.027128156
-0.015198542 -0.03145116 -0.010585248 0.05357711 0.038926687 -0.008224451 -0.055063605 -0.0052797804
00000000: 073d 2b3d dad8 ebbc 682a 75bd 5bca dbbb
00000010: cdf7 3a3c 728d 5cbb ea93 06bc 2e39 493a
00000020: 6731 cc3b 3a24 49bd 1291 c0bb 74ad 703c
00000030: 7800 e03c 465a f73c dcba f9bc f208 3abc
00000040: 67d9 543d 5430 2b3d c898 403d 7b77 24bd
00000050: 74f6 e6bb d50c 38bd f9b7 ebbc c867 3b3d
00000060: 6c8b 29bb 363a 3ebd 0cdd 3bbd 18eb 00bd
00000070: e8c0 acbc 2eed 4ebb 41b3 1e3d 23c7 6f3b
00000080: 0a94 2bbd e333 093d ce15 4f3c db8d 0d3c
00000090: 84c6 4f3d 84eb 443d 10f0 1cbd c69b b0ba
000000a0: b058 0f3d 190c 4d3d d4f6 47bd 4e6a a63b
000000b0: 7ebd 613d 9cc5 12ba f966 843c a39c 07bd
000000c0: 5e9b e23a d04d 033d ec10 e93c 4517 103d
000000d0: d759 37bd f246 10bd 3a26 b73c 2ecc 74bb
000000e0: 86b1 1e3d 924d aa3c 5e50 54bd 15ac d0bc
000000f0: e8fe 933c 46fa 433b d7f5 47bd a5d8 5b3d
00000100: f7b3 693d ce0b 443d ed4f abbb 9fb0 06bd
00000110: d156 22bd a514 bb3c 48b2 89bc 943e 1a3d
00000120: 7e4f b93c bbc9 e73c a38d b4bc 20e5 f7bb
00000130: 8d48 a83c 0dbf ba3c 4afb d6bc 4dca 59bd
00000140: 36e1 b7bc c06e e53b cb14 4cbd 59aa 48bd
00000150: 24fc 1b3d a9fe d5bc 1024 393c 40fe ebbb
00000160: 34b0 02bd f758 62bd df6f c23a a09e 9d3c
00000170: c362 5ebd c3cd acbc f00f dcbc f31f 21bd
00000180: d758 a8bb 65b0 16bd 4c82 93bc 2f96 b53c
00000190: ece6 5abd 3803 1f3c de68 00bd 0367 35bb
000001a0: 3e90 dfbc 7b53 60bd aa28 77bd b157 553d
000001b0: 670c acbb d022 223d 9f4d 57bd 9728 613c
000001c0: 5a56 2abd 6de3 2d3d 53cb 6abd 748f 433d
000001d0: e073 4dbc 068c 55bd c929 263d a3cc 41bd
000001e0: f663 6a3c eb25 dcbc 6308 15bd 5fad 0ebd
000001f0: a4bf c73b 968c f73a aaff e23c 0d60 1f3d
00000200: e490 b2bc ef18 fe3c 77d9 2e3d 4df1 debc
00000210: e64b 5c3d ce0f e2bc 8fc6 3fbd ccc2 bf3b
00000220: b42c 723d 7591 f13c f2aa 943c ba96 fc3c
00000230: 066b e438 076f a7bc ab88 42bd 5d30 563d
00000240: 89c3 ea3c f7f9 da3c d524 50bd 6f7a 083d
00000250: 5bea 93bc 1cae 963c 7743 f63c 21c1 74bd
00000260: 92d7 243c 32e1 cc3b c9b5 59bc 01d8 203d
00000270: 0dd9 1a3c 39ff 673d 41e0 aebc 9cb7 ccbc
00000280: 7332 a2bc 8818 25bd 47bb 1b3d 6447 2c3d
00000290: f922 443d 63ff 5cbd af47 453d 49bd 403d
000002a0: 40ba fe3c 41df 723d 81e3 d6bc 59fc 853c
000002b0: 5964 1f3d befe 493c 49b1 0abc 3df5 66bb
000002c0: f694 57bd 4449 9ebc dbec 58bc 56c7 58bd
000002d0: a4cc 2abd 20cd 0bbd c94d 68bc bda0 a9bc
000002e0: e467 38bd 6fe5 37ba 19a8 1fbc 8132 3dbd
000002f0: 0458 51bc 0bc4 39bd 96a4 28bd 6e19 233d
00000300: 5a71 a03c dfe5 0f3d 26ee 513c 40dc 71bb
00000310: 8430 4bbc 38e0 263c cad3 033d 8f58 4e3c
00000320: 95fe 263d 3ef9 4e3d c2de 3f3c fbc1 b8bb
00000330: 7ceb 13bc dba1 b43c 33ba 133d 5de0 24bd
00000340: aae6 003c 91e3 3d3d a578 1c3d ef14 cd3c
00000350: da6f cebc 31da cabc 789a babb eb7c 64bb
00000360: a2a3 833c 5a14 f73c 9c86 483d 3b0c cf3c
00000370: ffc3 663c f309 33bd cd7a a8bc 0f1f a03c
00000380: 7c65 ecbc 2250 1e3d c523 35bd ff4f 093c
00000390: 3eca 46bd dfc4 653d 083b 913c d491 5d3d
000003a0: 995a eabc 8f6d 2ebc 0399 da3c e5de 5dbd
000003b0: 8b65 c83c 6b59 5dbd 17d4 333d 585a 11bd
000003c0: 9852 fc36 7c35 dfbc 3ba4 533c 2c7d 6abd
000003d0: 453d 5ebd aec6 3b3d 61cd 1b3c de3b de3c
000003e0: 4e03 79bc eed2 00bd bf6d 2dbc ac73 5b3d
000003f0: 9771 1f3d d9bf 06bc 608a 61bd 0202 adbb

conv2.2.bias f4 [32]
0.031456586 0.016951665 0.00018948763 -0.0147082945 -0.028582292 0.032565594 0.010382087 -0.053053312
0.051015437 -0.022226237 -0.047518805 0.026398811 -0.03349077 0.05725481 -0.023095256 -0.02427329
0.048449047 -0.03148206 0.054480072 0.058781255 0.055832285 -0.021268254 -0.016544757 -0.0119015165
-0.0072679045 0.0303319 -0.009502709 -0.021463448 -0.006417597 0.03217288 -0.01753022 -0.03523328
00000000: 9fd8 003d 38de 8a3c 33b1 4639 0ffb 70bc
00000010: 6925 eabc 8063 053d a119 2a3c 6e4e 59bd
00000020: 90f5 503d cc13 b6bc 14a3 42bd 5242 d83c
00000030: 9e2d 09bd 0584 6a3d 4332 bdbc c7d8 c6bc
00000040: 8272 463d 55f3 00bd 7f26 5f3d 9dc4 703d
00000050: 65b0 643d c33a aebc df88 87bc 94fe 42bc
00000060: 9a27 eebb 9b7a f83c 40b1 1bbc 1dd4 afbc
00000070: b54a d2bb b6c7 033d 899b 8fbc c650 10bd

conv2.3.weight f4 [32]
1.000771 1.0009139 0.9980933 0.99929726 1.0026058 1.0036689 1.0010474 0.9997725
0.9979069 1.0007497 1.0002856 0.9991518 1.0007386 0.99950826 0.9996682 0.99882394
0.9979836 1.0006841 1.0010265 1.0018371 1.0012963 1.001982 1.0003682 1.001213
0.99757737 1.0002027 1.0010319 1.0006077 1.0021138 1.0012435 1.0005242 1.00049
00000000: 4419 803f f21d 803f 0b83 7f3f f2d1 7f3f
00000010: 6355 803f 3978 803f 5222 803f 17f1 7f3f
00000020: d476 7f3f 9118 803f 5c09 803f 6ac8 7f3f
00000030: 3418 803f c6df 7f3f 41ea 7f3f edb2 7f3f
00000040: da7b 7f3f 6b16 803f a321 803f 333c 803f
00000050: 7a2a 803f f240 803f 110c 803f bf27 803f
00000060: 3b61 7f3f a406 803f d021 803f ea13 803f
00000070: 4445 803f bf28 803f 2d11 803f 0e10 803f

conv2.3.bias f4 [32]
0.0026997714 0.0016201814 -0.0026591797 0.00016955355 -0.0020222105 -0.00014089508 0.0005864864 0.0013499189
-0.0034379705 -0.0016517345 -0.0018377294 -1.7360617e-05 -0.0016240643 0.0015519921 -0.0005786305 -0.0021014845
0.00017217064 0.002196894 0.0022753652 0.00013191065 -0.0012534183 -0.0023131964 0.0002216536 -0.0001167958
-0.000674642 -0.0017626545 -0.0017025154 0.0005909551 -0.00045317796 -0.001123363 0.0026050769 -0.0005234367
00000000: a6ee 303b 445c d43a a245 2ebb 2fca 3139
00000010: 1087 04bb 3cbd 13b9 70be 193a c3ef b03a
00000020: 934f 61bb 037f d8ba f7df f0ba a4a1 91b7
00000030: 8ede d4ba 376c cb3a 3caf 17ba 0fb9 09bb
00000040: b488 3439 c4f9 0f3b 4b1e 153b 7f51 0a39
00000050: bd49 a4ba ff98 17bb af6b 6839 45f0 f4b8
00000060: 75da 30ba df08 e7ba f026 dfba 53ea 1a3a
00000070: 8498 edb9 cf3d 93ba f0b9 2a3b 3e37 09ba

conv2.3.running_mean f4 [32]
-0.7120093 -0.92805135 -0.12327307 -0.70282155 -0.22796632 0.06448867 -0.8217024 0.50592977
1.3050634 0.089938484 -0.39968926 0.32676867 0.33087695 -0.0507465 -0.3067236 0.10007526
0.14605413 -0.10434118 -0.18180142 0.7854397 -0.22461759 0.24312223 0.7529471 -0.15953188
-0.04982227 0.5710121 -1.1246147 0.26969323 -0.24497917 -0.59313005 -0.75403154 0.2839022
00000000: 3e46 36bf c694 6dbf 9776 fcbd 1dec 33bf
00000010: 0170 69be a312 843d 175b 52bf 9d84 013f
00000020: 510c a73f ab31 b83d 12a4 ccbe 394e a73e
00000030: b468 a93e 90db 4fbd e00a 9dbe 42f4 cc3d
00000040: 378f 153e d4b0 d5bd 272a 3abe 9412 493f
00000050: 2702 66be 09f5 783e 24c1 403f 535c 23be
00000060: 7012 4cbd d92d 123f 60f3 8fbf 3b15 8a3e
00000070: d2db 7abe 5fd7 17bf 3608 41bf a15b 913e

conv2.3.running_var f4 [32]
0.3951953 0.60626334 0.29847735 0.49349988 0.31237313 0.026672797 0.5743853 0.68779224
0.9975833 0.20714441 0.38402107 0.114701115 0.11345409 0.18524282 0.1768332 0.3543007
0.2535826 0.118244715 0.19102071 0.27357727 0.20494859 0.11049642 0.25001973 0.14259692
0.04786416 0.2861836 0.59717166 0.79338944 0.1487285 0.5002025 0.2222611 0.11539249
00000000: 0a57 ca3e 1334 1b3f 06d2 983e 04ac fc3e
00000010: 5fef 9f3e e980 da3c ea0a 133f 2713 303f
00000020: 9f61 7f3f aa1d 543e 699e c43e 6be8 ea3d
00000030: 9e5a e83d 4bb0 3d3e c313 353e e766 b53e
00000040: 94d5 813e 492a f23d ef9a 433e 5212 8c3e
00000050: 0bde 513e f24b e23d 9602 803e ed04 123e
00000060: 360d 443d a886 923e 3ee0 183f 921b 4b3f
00000070: 494c 183e 450d 003f 6a98 633e e652 ec3d

conv3.0.weight f4 [32, 32, 9, 1]
-0.03323896 -0.056772325 -0.022418784 0.015474506 0.05582854 0.050989415 -0.04180667 -0.029432079
0.04913576 0.039004534 -0.043005083 0.055466812 -0.001665689 -0.00025511367 0.057049375 0.012636284
-0.031182867 0.049499135 0.051065333 -0.05256481 -0.035314642 0.031230377 -0.032049216 -0.020302285
-0.0039563105 0.055992898 0.0066406894 -0.014262578 -0.0038327142 -0.008379639 -0.045015704 0.05677347
-0.05483202 0.0071959817 -0.051102486 -0.027559415 0.01865147 -0.03226737 -0.03161189 0.052089192
-0.038281735 0.024898121 -0.0155610675 0.018282797 0.043442395 -0.056984127 0.013610732 -0.0002394343
-0.046543743 -0.039961107 -0.052016243 0.036838792 -0.042167064 0.044056494 0.041278005 0.051120654
0.024469139 0.03422001 0.038979914 -0.028166898 0.029459663 0.0048414213 -0.042617574 -0.013842935
-0.020920554 0.05960634 0.03414269 -0.006668404 -0.060066316 -0.0032541067 0.02882759 0.028761588
0.0015523168 -0.049858116 0.04214743 0.050953012 0.047453124 0.044620026 -0.010451125 0.010513268
-0.035329256 -0.020126125 0.04509587 -8.145029e-05 0.01544168 0.028272249 0.04023403 -0.046154857
-0.0581904 -0.032292176 0.014821094 0.02716087 0.03928297 0.039586544 0.03567382 -0.044425603
-0.049167495 -0.02137282 0.050507654 0.0537541 0.053439923 -0.02207876 -0.044763427 0.022829982
0.027326984 -0.006990111 0.032365333 -0.008028296 -0.011336614 -0.019499894 0.026205882 0.057468984
0.029080756 -0.027695334 0.030817965 -0.048557386 0.046056323 -0.018036444 -0.0498361 -0.042035747
0.020048704 0.052358165 -0.013440715 0.0430291 -0.036951296 -0.011495135 0.053797614 0.002809011
0.01853555 -0.009402846 0.041933555 -0.057118654 0.029278757 -0.053070568 -0.0020381939 -0.0019581201
0.038711604 -0.019328289 0.04769704 0.051612385 0.03029488 -0.041840695 0.024199126 0.027459783
-0.055876974 0.05075188 0.026666518 -0.00013114285 -0.020961892 -0.055961248 -0.047496393 0.033060912
0.008757838 0.034874372 -0.029889131 0.043092012 0.0017243212 -0.028026082 -0.014366521 0.03704348
-0.034777004 0.05806611 0.027202385 0.032357648 -0.043545127 -0.014647312 0.04504372 0.039717663
0.034944188 -0.03745171 0.027601711 0.000102308644 0.02256518 0.048565075 0.027655626 -0.021695442
0.039695024 0.046995174 0.021531153 -0.034365613 -0.04406821 -0.04848105 -0.013371346 0.024024634
0.03269166 -0.041070394 0.026253559 -0.03572875 -0.00072273036 0.0011934511 -0.04243545 0.03712484
-0.05026423 0.005716297 0.018196555 -0.024473872 -0.028153028 -0.037321348 0.030598132 -0.048899308
0.026493508 0.0006315376 -0.020061703 -0.020240422 -0.016472692 -0.030162806 0.019933192 -0.053198446
-0.04320849 0.013430558 0.022230309 -0.012777021 -0.028525311 -0.03692891 -0.036191545 0.0004004601
0.025063053 -0.051148213 0.041235775 0.030208614 -0.021833045 0.010988656 -0.017017234 0.042730223
-0.046443656 0.054021236 -0.026365258 -0.04273736 -0.03811956 0.02669902 -0.037135784 0.019864868
0.033131454 0.025061056 -0.027014388 -0.003812512 -0.047819316 -0.0028525617 0.0354228 -0.03101495
-0.04714449 -0.012196913 0.05682548 -0.021479936 0.0065883067 0.034469552 0.00015241432 -0.057505645
-0.017006751 -0.013975738 0.016109418 0.053855553 0.04967728 0.0036057315 0.011582337 -0.05022084
00000000: 9325 08bd 198a 68bd 99a7 b7bc c888 7d3c
00000010: 78ac 643d 47da 503d 793d 2bbd 8b1b f1bc
00000020: 9442 493d 38c3 1f3d 1926 30bd 2b31 633d
00000030: 4053 daba c7c0 85b9 9bac 693d 6b08 4f3c
00000040: 3673 ffbc 9bbf 4a3d e229 513d 334e 57bd
00000050: 16a6 10bd d9d6 ff3c 0a46 03bd fa50 a6bc
00000060: f0a3 81bb cf58 653d 249a d93b 97ad 69bc
00000070: 462e 7bbb c14a 09bc 6362 38bd 4c8b 683d
00000080: 8a97 60bd 45cc eb3b d750 51bd 48c4 e1bc
00000090: f8ca 983c ca2a 04bd 787b 01bd 7a5b 553d
000000a0: 4fcd 1cbd 25f7 cb3c d9f3 7ebc cec5 953c
000000b0: a7f0 313d 3068 69bd 8cff 5e3c a810 7bb9
000000c0: a7a4 3ebd 42ae 23bd fc0e 55bd 46e4 163d
000000d0: 5fb7 2cbd 9574 343d 2013 293d e463 513d
000000e0: 8173 c83c 482a 0c3d 67a9 1f3d 44be e6bc
000000f0: 6455 f13c c9a4 9e3b c48f 2ebd 7acd 62bc
00000100: 9561 abbc c725 743d 35d9 0b3d a182 dabb
00000110: 1908 76bd da42 55bb d727 ec3c 6c9d eb3c
00000120: 1c77 cb3a 0638 4cbd c9a2 2c3d 1bb4 503d
00000130: 355e 423d 7dc3 363d 323b 2bbc d83f 2c3c
00000140: 69b5 10bd 8bdf a4bc 72b6 383d 4bd0 aab8
00000150: 1aff 7c3c 349b e73c 70cc 243d e00c 3dbd
00000160: 0f59 6ebd cd44 04bd 2dd4 723c 7980 de3c
00000170: 2ee7 203d 8025 223d b61e 123d 9ff7 35bd
00000180: db63 49bd 0d16 afbc 1de1 4e3d 422d 5c3d
00000190: d2e3 5a3d 84de b4bc db59 37bd f105 bb3c
000001a0: d7dc df3c 4d0d e5bb 8391 043d 1d89 03bc
000001b0: 35bd 39bc 3ebe 9fbc b8ad d63c 9964 6b3d
000001c0: c43a ee3c 53e1 e2bc f575 fc3c 1ce4 46bd
000001d0: 8ea5 3c3d 2ac1 93bc f020 4cbd ad2d 2cbd
000001e0: 2e3d a43c 8475 563d 7236 5cbc 483f 303d
000001f0: 3e5a 17bd 1756 3cbc e35a 5c3d 6217 383b
00000200: ded7 973c 650e 1abc 85c2 2b3d 40f5 69bd
00000210: 01da ef3c 8660 59bd 3893 05bb ce53 00bb
00000220: 0f90 1e3d 5c56 9ebc f95d 433d 8267 533d
00000230: f82c f83c 2661 2bbd 3f3d c63c 57f3 e03c
00000240: 41df 64bd 34e1 4f3d be73 da3c 6483 09b9
00000250: 46b8 abbc 9f37 65bd 948b 42bd e16a 073d
00000260: 097d 0f3c 6ed8 0e3d 0dda f4bc 4081 303d
00000270: 9e02 e23a f496 e5bc 8e61 6bbc e7ba 173d
00000280: 5572 0ebd bbd6 6d3d 89d7 de3c 7489 043d
00000290: 605c 32bd 48fb 6fbc c47f 383d fdae 223d
000002a0: a321 0f3d f766 19bd fc1c e23c 898e d638
000002b0: 9dda b83c 2cec 463d 0d8e e23c a4ba b1bc
000002c0: 4097 223d 037e 403d 1a62 b03c f5c2 0cbd
000002d0: de80 34bd 1194 46bd 7d13 5bbc 4fcf c43c
000002e0: b1e7 053d 6e39 28bd b411 d73c 4f58 12bd
000002f0: 9d75 3dba 936d 9c3a cbd0 2dbd 3710 183d
00000300: dee1 4dbd c64f bb3b f110 953c 6e7d c8bc
00000310: 2ea1 e6bc 45de 18bd efa8 fa3c a44a 48bd
00000320: ea08 d93c c58d 253a 7158 a4bc 3ecf a5bc
00000330: bdf1 86bc fd17 f7bc ef4a a33c 9de6 59bd
00000340: 63fb 30bd d80b 5c3c 561c b63c b656 51bc
00000350: eaad e9bc c542 17bd 963d 14bd d8f4 d139
00000360: 0851 cd3c ca80 51bd d8e6 283d 0e78 f73c
00000370: 37db b2bc c409 343c ba67 8bbc e305 2f3d
00000380: b43b 3ebd 5f45 5d3d f4fb d7bc 5f0d 2fbd
00000390: 4123 1cbd e7b7 da3c b11b 18bd a6bb a23c
000003a0: d9b4 073d d84c cd3c 474d ddbc 56db 79bb
000003b0: 30de 43bd 0bf2 3abb 7f17 113d 1013 febc
000003c0: 951a 41bd 90d5 47bc d6c1 683d b1f6 afbc
000003d0: b9e2 d73b f22f 0d3d 68d1 1f39 0a8b 6bbd
000003e0: be51 8bbc 7efa 64bc e6f7 833c a497 5c3d
000003f0: 677a 4b3d 234e 6c3b d8c3 3d3c 5eb4 4dbd

conv3.0.bias f4 [32]
-0.02727171 0.0031118141 -0.04696334 -0.014154919 -0.048665863 -0.008865891 0.046627555 0.03528899
-0.050007112 -0.0019034853 -0.055310562 -0.05092211 0.0047566327 -0.0074092434 -0.032114383 0.051587887
-0.009694982 0.028722383 -0.046539478 0.013825228 0.05446262 0.0016122548 -0.019402007 0.05607039
0.047601588 0.0020520326 -0.017838659 0.05918136 -0.027196137 -0.024726402 0.027685879 0.016256593
00000000: ec68 dfbc 94ef 4b3b a25c 40bd 09ea 67bc
00000010: db55 47bd 3e42 11bc 89fc 3e3d 308b 103d
00000020: 42d4 4cbd 5e7e f9ba 548d 62bd b493 50bd
00000030: 87dd 9b3b 3dc9 f2bb 5f8a 03bd d24d 533d
00000040: b4d7 1ebc 344b eb3c 2ea0 3ebd 3683 623c
00000050: 3214 5f3d 4b52 d33a f5f0 9ebc 11aa 653d
00000060: e2f9 423d 657b 063b 6122 92bc 2768 723d
00000070: 6fca debc 068f cabc 7fcd e23c 8c2c 853c

conv3.2.weight f4 [32, 32, 1, 9]
0.025882533 -0.0095514655 0.03001652 -0.024801398 -0.022738028 -0.015631273 0.0039963373 0.032042097
0.044550177 -0.023930676 0.003961917 -0.01286282 0.03420211 -0.047809735 -0.04949927 0.04439873
-0.017569453 -0.004977014 0.008582341 -0.052618854 -0.03632219 0.007946541 0.026048912 -0.03848516
-0.0399197 -0.0075195357 0.028615229 0.015415527 -0.044570044 0.04401173 -0.03360877 -0.01893024
-0.007001212 0.0583201 0.011801503 -0.015392044 0.004760093 0.0020109026 -0.0268627 0.011343689
0.019448759 0.030499041 0.011037431 0.015240319 0.01151441 0.004882177 0.036460314 0.029027607
0.026709864 -0.028064933 -0.040696926 0.01608267 0.040966716 0.021249278 0.030086873 0.006099652
0.048742253 -0.012638405 0.012290956 -0.015696913 0.017755982 0.030702088 0.03154091 0.036490757
-0.01567472 0.027820384 -0.050493225 0.012303025 0.043489665 -0.032480124 -0.038747787 -0.016409678
0.040219724 -0.054011084 -0.00075110904 0.03887201 0.054533698 0.0051443106 -0.026564194 -0.012417609
0.051330484 0.023339005 -0.056450408 -0.045285165 0.0149670895 -0.013860215 0.05455968 -0.02023901
-0.034031987 -0.03760956 -0.023354318 0.016957887 0.0065148007 0.012896497 -0.023294529 0.0148863215
-0.0113451965 0.012978464 0.029413477 0.0049801553 0.05050314 -0.003372469 0.034896433 -0.031672787
0.041634068 -0.011920889 0.036755487 -0.022159839 -0.016865274 0.008076559 0.03573459 -0.047554854
-0.019194035 0.046654023 0.005562861 0.060042974 -0.04518833 0.021391435 0.008348719 0.055074025
0.006382116 -0.023467496 -0.010146945 -0.015522442 -0.020759897 0.040029928 0.053697735 0.0077658035
-0.03370173 0.037039068 -0.045885045 0.040040705 0.051578242 0.043043613 -0.04933773 0.014231661
-0.037292805 -0.019043427 -0.04031491 0.003859353 -0.049324103 -0.038570922 0.032665927 0.038894445
0.0057535227 -0.052350547 0.0017418793 -0.0038460793 0.05455293 0.041965764 -0.030066157 0.015775096
-0.05599712 -0.036480386 0.005868061 0.05153635 0.050970167 -0.038090754 -0.044012688 -0.010715173
0.03244659 0.0179915 0.05609453 -0.037990347 -0.046837814 -0.015626302 -0.03882372 0.007029429
-0.039819412 -0.04744724 0.014338707 -0.031534564 0.04794771 0.010582361 0.004801352 -0.006828158
-0.017814172 -0.013078784 0.021043021 0.026913213 0.007528048 -0.011629419 0.045198508 0.023090107
-0.018211061 -0.005499439 -0.022014128 -0.012719622 -0.025595622 0.01957982 0.048270106 -0.04568991
-0.055170376 0.054088596 0.030779075 -0.003697341 -0.028285213 0.05575986 -0.02799907 0.04365037
-0.045274355 -0.00946771 0.03493516 -0.022056274 0.05789165 -0.04287306 0.011983494 -0.03217167
-0.024368 -0.02371521 -0.00054961775 0.027620144 0.029082414 0.03222074 -0.022538785 0.051603176
-0.01264337 0.055258926 0.05678481 0.03499611 0.050489064 -0.0418057 -0.01868896 -0.046465594
-0.030324465 -0.03885299 -0.0284168 0.020764582 -0.0556736 -0.040253326 0.05143897 0.0405788
0.052004147 -0.027560722 -0.027953919 -0.044124797 -0.016136145 0.008937536 -0.03330296 -0.058468137
0.03593729 -0.024855737 -0.0503863 0.027470576 0.02853318 0.015464273 -0.016645344 0.022057412
0.047843628 0.0038174165 0.04036176 0.049077652 0.022439431 0.010879052 0.05615852 -0.00576833
00000000: 9b07 d43c c07d 1cbc 34e5 f53c 4d2c cbbc
00000010: 1a45 babc 280d 80bc b5f3 823b 933e 033d
00000020: 3f7a 363d 440a c4bc f8d2 813b 94be 52bc
00000030: 8317 0c3d 24d4 43bd bfbf 4abd 71db 353d
00000040: d0ed 8fbc 3816 a3bb f29c 0c3c de86 57bd
00000050: 94c6 14bd 3532 023c 8764 d53c 9da2 1dbd
00000060: d782 23bd 7066 f6bb 7c6a ea3c 6891 7c3c
00000070: 148f 36bd a545 343d 5aa9 09bd 9713 9bbc
00000080: 6c6a e5bb 0fe1 6e3d 175b 413c e92e 7cbc
00000090: 8efa 9b3b 59c9 033b 2a0f dcbc e1da 393c
000000a0: 0153 9f3c 20d9 f93c 57d6 343c 88b2 793c
000000b0: f0a6 3c3c abfa 9f3b 6957 153d 4ecb ed3c
000000c0: a5ce da3c 6ee8 e5bc d2b1 26bd cebf 833c
000000d0: b7cc 273d f712 ae3c bf78 f63c 97df c73b
000000e0: f5a5 473d 5011 4fbc 0260 493c d096 80bc
000000f0: fe74 913c f282 fb3c 0b31 013d 5577 153d
00000100: 4568 80bc 93e7 e33c fcd1 4ebd a192 493c
00000110: 3822 323d e109 05bd 00b6 1ebd 976d 86bc
00000120: 70bd 243d ba3a 5dbd 13e6 44ba 4238 1f3d
00000130: ba5e 5f3d 9b91 a83b 279d d9bc 3a73 4bbc
00000140: ea3f 523d 7131 bf3c 8b38 67bd f07c 39bd
00000150: 8638 753c f515 63bc f979 5f3d 48cc a5bc
00000160: 2065 0bbd 7b0c 1abd 8e51 bfbc 44eb 8a3c
00000170: 1c7a d53b d44b 533c 2bd4 bebc c2e5 733c
00000180: 34e1 39bc a0a3 543c 88f4 f03c 9230 a33b
00000190: 61dc 4e3d a404 5dbb 90ef 0e3d 53bb 01bd
000001a0: 7c88 2a3d d54f 43bc ec8c 163d 8d88 b5bc
000001b0: 0b29 8abc 8b53 043c 6f5e 123d e1c8 42bd
000001c0: cf3c 9dbc 4a18 3f3d a948 b63b 9fef 753d
000001d0: 6617 39bd 173d af3c 11c9 083c 4d95 613d
000001e0: 1221 d13b e83e c0bc 5f3f 26bc d751 7ebc
000001f0: a910 aabc 6cf6 233d 28f2 5b3d 4878 fe3b
00000200: d30a 0abd 47b6 173d f5f1 3bbd b901 243d
00000210: b543 533d 804e 303d 5c16 4abd ea2b 693c
00000220: 57c0 18bd f600 9cbc 3f21 25bd 33ed 7c3b
00000230: 1208 4abd 8bfc 1dbd b5cc 053d c84f 1f3d
00000240: 0c88 bc3b 876d 56bd c54f e43a 810e 7cbb
00000250: e572 5f3d 4be4 2b3d 4d4d f6bc c63a 813c
00000260: 3c5d 65bd 756c 15bd dd48 c03b c817 533d
00000270: 18c6 503d 0d05 1cbd a646 34bd b18e 2fbc
00000280: b7e6 043d e962 933c 61c3 653d c49b 1bbd
00000290: 02d9 3fbd bb02 80bc 9f05 1fbd 2057 e63b
000002a0: ae19 23bd 0a58 42bd e5ec 6a3c 632a 01bd
000002b0: d164 443d a461 2d3c a954 9d3b bebe dfbb
000002c0: 07ef 91bc 6548 56bc 6a62 ac3c 1979 dc3c
000002d0: d8ad f63b 5289 3ebc 1222 393d 7727 bd3c
000002e0: 5d2f 95bc a334 b4bb f956 b4bc f665 50bc
000002f0: e9ad d1bc dc65 a03c e0b6 453d 5825 3bbd
00000300: 55fa 61bd 018c 5d3d 6624 fc3c 174f 72bb
00000310: 64b6 e7bc 7364 643d 4e5e e5bc bbca 323d
00000320: 9a71 39bd 741e 1bbc 2c18 0f3d 5caf b4bc
00000330: cb1f 6d3d a99b 2fbd 6b56 443c 71c6 03bd
00000340: 669f c7bc 6646 c2bc 3914 10ba a443 e23c
00000350: 3e3e ee3c e5f9 033d 42a3 b8bc da5d 533d
00000360: 2326 4fbc 2f57 623d 3097 683d 1558 0f3d
00000370: 9fcd 4e3d 743c 2bbd 9719 99bc b552 3ebd
00000380: 036b f8bc 5024 1fbd 59ca e8bc 7c1a aa3c
00000390: 000a 64bd ace0 24bd abb1 523d f535 263d
000003a0: 4d02 553d 06c7 e1bc 9eff e4bc 34bc 34bd
000003b0: f32f 84bc be6e 123c af68 08bd 497c 6fbd
000003c0: fb32 133d 429e cbbc dd61 4ebd f909 e13c
000003d0: 6abe e93c dd5d 7d3c d15b 88bc bfb1 b43c
000003e0: aef7 433d 9f2d 7a3b 5f52 253d a605 493d
000003f0: e6d2 b73c 0d3e 323c 7a06 663d 4204 bdbb

conv3.2.bias f4 [32]
-0.0109331105 0.01765418 -0.056548204 -0.048045423 -0.027106803 0.04545859 0.00236691 0.045183275
0.016328461 0.01726561 -0.03444414 0.034073867 -0.04626773 -0.0006802155 -0.029506663 0.045992855
-0.00538646 0.038162466 0.034068633 0.014292234 -0.02097251 -0.058723383 -0.008569415 -0.027902773
-0.024295045 0.051904652 0.05807369 0.05674776 -0.02047772 -0.028117811 0.056832634 -0.045640104
00000000: ca20 33bc 809f 903c 179f 67bd 47cb 44bd
00000010: 160f debc c932 3a3d 291e 1b3b 1912 393d
00000020: 44c3 853c 9c70 8d3c 4c15 0dbd 0a91 0b3d
00000030: 3b83 3dbd 7d50 32ba f5b7 f1bc 0163 3c3d
00000040: e780 b0bb 3f50 1c3d 8d8b 0b3d f929 6a3c
00000050: 8bce abbc ee87 70bd bb66 0cbc 5b94 e4bc
00000060: 6706 c7bc f999 543d adde 6d3d 5770 683d
00000070: e4c0 a7bc 5357 e6bc 56c9 683d 1ef1 3abd

conv3.3.weight f4 [32]
1.0010785 1.0047224 0.9994828 0.9996807 1.000031 1.0004525 1.0021021 0.9997962
1.0018084 1.0011241 0.99848264 0.99864596 0.99848443 1.0014395 1.0007142 1.0031503
1.0013578 0.9994753 1.0003783 0.9996577 1.0000355 1.0004299 1.0016694 1.0010936
1.0008507 1.0005269 0.99936247 0.9986545 0.99816006 0.99976 0.999518 1.0019611
00000000: 5723 803f be9a 803f 1bde 7f3f 13eb 7f3f
00000010: 0401 803f d40e 803f e244 803f a5f2 7f3f
00000020: 423b 803f d624 803f 8f9c 7f3f 43a7 7f3f
00000030: ad9c 7f3f 2b2f 803f 6717 803f 3b67 803f
00000040: 7e2c 803f 9ddd 7f3f 650c 803f 91e9 7f3f
00000050: 2a01 803f 160e 803f b436 803f d623 803f
00000060: e01b 803f 4411 803f 38d6 7f3f d2a7 7f3f
00000070: 6b87 7f3f 45f0 7f3f 69e0 7f3f 4340 803f

conv3.3.bias f4 [32]
-3.7393715e-05 0.0008585683 -0.0005352576 -0.0008499691 0.0008849479 -4.972693e-05 0.00043228862 3.6011683e-05
0.0025633555 0.00021875184 -0.0016364087 -0.0005383735 -7.100207e-05 0.00087971264 -0.0003801571 -0.0022695726
-0.0024556594 0.0013342381 0.00078417297 -4.5133675e-05 -1.0937126e-05 -0.0020760093 0.00064849405 0.0005193026
0.00035600827 -0.0013113065 -0.0012715986 0.0005474024 -0.0021366251 0.0004780185 -8.135507e-05 0.0009789144
00000000: 32d7 1cb8 8b11 613a 8850 0cba 76d0 5eba
00000010: d9fb 673a e291 50b8 cca4 e239 400b 1738
00000020: f8fd 273b c060 6539 c47c d6ba a221 0dba
00000030: f2e6 94b8 849c 663a d24f c7b9 1cbd 14bb
00000040: 21ef 20bb 9ae1 ae3a f590 4d3a ea4d 3db8
00000050: 997e 37b7 a80d 08bb b3ff 293a cf21 083a
00000060: 9fa6 ba39 25e0 abba c5ab a6ba 8e7f 0f3a
00000070: 9f06 0cbb 8f9e fa39 2c9d aab8 eb4e 803a

conv3.3.running_mean f4 [32]
0.16207556 0.4893124 -0.67340004 -0.55559963 0.2709342 -0.38407165 0.10036607 0.7470815
-0.11647854 -0.44955873 -0.13331182 -0.6609247 -0.693178 -0.23149484 0.5032392 0.31401554
0.17279944 -0.07125241 0.10025421 0.60229987 0.20475912 1.2489964 -0.9985352 -0.09014784
-0.2782879 0.6012553 -0.025049089 -0.9051434 0.72412044 0.12171692 -0.17186978 -0.18458389
00000000: 23f7 253e 2887 fa3e f263 2cbf c73b 0ebf
00000010: e3b7 8a3e 0aa5 c4be ba8c cd3d bc40 3f3f
00000020: 4d8c eebd 902c e6be e582 08be 5c32 29bf
00000030: 1d74 31bf fc0c 6dbe 49d4 003f a5c6 a03e
00000040: 56f2 303e c9ec 91bd 1452 cd3d 5330 1a3f
00000050: 60ac 513e 1ddf 9f3f 01a0 7fbf 6e9f b8bd
00000060: c07b 8ebe deeb 193f bf33 cdbc 7ab7 67bf
00000070: f55f 393f b846 f93d a2fe 2fbe 8f03 3dbe

conv3.3.running_var f4 [32]
0.074135974 0.06961271 0.81239563 0.26368505 0.22231326 0.12101271 0.2076901 0.83698857
0.1971814 0.3040581 0.39137015 0.5215244 0.672617 0.09370325 0.58141553 0.1690292
0.3680176 0.27532986 0.47293222 0.85563207 0.55278224 1.6129007 0.96024567 0.08991357
0.13818663 0.33626822 0.46050644 0.7350949 1.1166131 0.28561005 0.18113498 0.24255113
00000000: 9ad4 973d 1c91 8e3d 29f9 4f3f ba01 873e
00000010: 16a6 633e 83d5 f73d b7ac 543e e244 563f
00000020: ece9 493e 81ad 9b3e ab61 c83e a082 053f
00000030: a130 2c3f 7de7 bf3d a6d7 143f fe15 2d3e
00000040: ce6c bc3e 09f8 8c3e 2c24 f23e b40a 5b3f
00000050: 2383 0d3f 8873 ce3f a9d2 753f 9b24 b83d
00000060: cc80 0d3e 592b ac3e 80c7 eb3e 2e2f 3c3f
00000070: 2eed 8e3f 7b3b 923e 737b 393e 535f 783e
