models/teacher/S2_net_fc.pt (torch, 20736 bytes, 8 tensors)

fc.0.weight f4 [32, 128]
0	0x3cea81fd	0.028626436
1	0xbd4c775a	-0.04991851
2	0xbd9dd34f	-0.077063195
3	0x3d98e8d8	0.074662864
4	0x3d77cc7b	0.060497742
5	0xbd1afa25	-0.037836213
6	0xbd391e79	-0.045195077
7	0x3d0d1b37	0.034449782
8	0x3d6146d0	0.054999173
9	0xbccf987f	-0.02534127
10	0xbda2c5bd	-0.07947872
11	0xbd3c41bf	-0.045961138
12	0x3b114709	0.0022167584
13	0xbd63ee80	-0.055647373
14	0x3d383aa6	0.044977807
15	0x3c3bb655	0.011457046
16	0x3d141a39	0.03615782
17	0xbda3bec2	-0.079953685
18	0x3d8894df	0.0666902
19	0xbda0332d	-0.07822261
20	0xbd1054ef	-0.03523725
21	0xbd04a08e	-0.03237968
22	0x3db3f692	0.08787264
23	0xbd9d33e5	-0.07675914
24	0xbd464c25	-0.04841246
25	0x3d8562d5	0.06512991
26	0x3d966748	0.07343918
27	0xbce340a8	-0.027740791
28	0xbd95b43b	-0.07309767
29	0x3d53cd5e	0.051709525
30	0xbd0bfc7f	-0.034176346
31	0xbc1eea12	-0.009699361
32	0xbbff544e	-0.0077920323
33	0xbc09212d	-0.008369726
34	0xbc01cea3	-0.007922801
35	0x3da3ad2b	0.079920135
36	0x3c36c096	0.0111543145
37	0x3da723c2	0.08161117
38	0x3d993b93	0.07482066
39	0x3d61c128	0.05511585
40	0x3d1b74d7	0.037953224
41	0x3d39cd22	0.045361646
42	0x3d7ca2c4	0.061678663
43	0x3d8e056e	0.069346294
44	0x3d0ceac7	0.03440359
45	0x3cf43a0d	0.029812837
46	0x3da80adb	0.082051955
47	0x3ce0a8b2	0.02742419
48	0x3d6e5aee	0.058192186
49	0xbd912e63	-0.07088926
50	0x3db43607	0.087993674
51	0xb9e4d012	-0.00043642573
52	0xbd03d2f7	-0.032183614
53	0xbd73f3f7	-0.059558835
54	0x3ca1c2c7	0.019746197
55	0x3d9968f8	0.07490724
56	0x3dab635f	0.08368563
57	0xbd38c6e8	-0.045111567
58	0x3da3e114	0.080019146
59	0xbdaa5de0	-0.083186865
60	0x3d74906d	0.059708048
61	0x3ca6ce41	0.020362021
62	0x3d304b6e	0.043040685
63	0x3d70cb08	0.058787376
64	0x3c065f57	0.008201442
65	0xbb044954	-0.0020185309
66	0xbda46d8a	-0.080287054
67	0x3da5de85	0.08099083
68	0xbd28066a	-0.041021742
69	0xbd835365	-0.064123906
70	0x3d12e6ab	0.035864513
71	0xbd4a4d7c	-0.0493903
72	0xbd96a3c3	-0.07355454
73	0x3da05309	0.07828338
74	0x3ce5bada	0.0280432
75	0x3d4534cc	0.048146054
76	0xbcbfad65	-0.02339811
77	0xbd69f909	-0.057122264
78	0xbc3efa4d	-0.011656356
79	0x3d442014	0.047882155
80	0x3d17c459	0.037052486
81	0x3c0a284f	0.008432462
82	0x3b5b1092	0.0033426625
83	0x3d0c25e6	0.03421583
84	0x3d973961	0.07383991
85	0x3d757f92	0.059936114
86	0xbd1aacb1	-0.037762348
87	0xbda8e39c	-0.08246538
88	0xbd1aa628	-0.037756115
89	0xbcfc0c8b	-0.0307677
90	0x3ce3344b	0.027734896
91	0xbdb6ad17	-0.08919733
92	0xbd8019df	-0.062549345
93	0x3d981779	0.07426352
94	0xbd83c393	-0.06433787
95	0x3d32bdd9	0.043638084
96	0x3bf2b3e4	0.0074066985
97	0x3db35d70	0.08758056
98	0x3ce0bb77	0.02743314
99	0x3c36136c	0.011113029
100	0xbd735868	-0.059410483
101	0xbda76f0c	-0.081754774
102	0x3d8329fe	0.06404494
103	0x3cef2d35	0.029196361
104	0xbcb755e3	-0.022379821
105	0xbdab3869	-0.08360369
106	0x3d90d1d2	0.0707127
107	0x3c8be882	0.017078642
108	0x3d2d95be	0.042379133
109	0xbd86482c	-0.065567344
110	0x3d363c92	0.044491358
111	0xbcb89e40	-0.022536397
112	0xbd7d527c	-0.06184624
113	0xbd4f4da1	-0.050611142
114	0xbdb56b7b	-0.08858391
115	0x3d406996	0.046975695
116	0xbd0bc0f4	-0.03411956
117	0x3c68ead0	0.01421614
118	0xbd8c92e7	-0.06863957
119	0xbd8ad655	-0.06779162
120	0xbc9af378	-0.018914923
121	0xbd17b349	-0.037036214
122	0x3da9e88b	0.08296307
123	0x3d1b74db	0.03795324
124	0xbc6316e9	-0.013860443
125	0xbc7fa34d	-0.015602899
126	0xbd7836c1	-0.060599092
127	0xbdad0137	-0.08447497
128	0xbd3fb664	-0.0468048
129	0x3d80041e	0.06250785
130	0xbda223f2	-0.07917012
131	0x3d72f363	0.059314143
132	0x3d5db703	0.05412961
133	0x3d7da8ff	0.061928745
134	0x3ca7b041	0.020469787
135	0xbd986891	-0.074418195
136	0xbd77dc1a	-0.06051264
137	0x3b977740	0.00462237
138	0xbd97930e	-0.07401095
139	0xbdab5884	-0.083664924
140	0x3b91efdb	0.004453642
141	0x3b4e58d2	0.0031486047
142	0x3d183897	0.037163343
143	0x3d8a03a1	0.067389734
144	0x3ce1cfb9	0.02756487
145	0xbda1492c	-0.078752846
146	0xbda5aeda	-0.08089991
147	0xbbbfab55	-0.005849282
148	0x3c8df74f	0.01732984
149	0x3da815f8	0.08207315
150	0x3ccd93bd	0.025094861
151	0x3d882839	0.06648297
152	0x3d88d1dd	0.06680653
153	0xbd874955	-0.06605784
154	0x3d56ccf5	0.052441556
155	0x3db3bb31	0.08775938
156	0x3d65f9f6	0.056146584
157	0x3bc42e92	0.005986997
158	0xbd98aff9	-0.07455439
159	0xbb82d24e	-0.0039923554
160	0x3cd0d704	0.025493152
161	0xbd22219e	-0.03958284
162	0x3b7acfc2	0.0038270806
163	0xbdb5f8ed	-0.088853694
164	0x3d1e321e	0.038622014
165	0x3d456041	0.048187498
166	0xbd720059	-0.059082363
167	0x3d8d164d	0.06889019
168	0xbd84c86b	-0.06483539
169	0x3d89e9dc	0.06734058
170	0x3d7e8e3d	0.062147368
171	0xbd9cc62e	-0.07654987
172	0x3cf7ea65	0.030263135
173	0xbd45dc3b	-0.04830573
174	0x3d30f429	0.0432016
175	0xbd6fa05c	-0.05850254
176	0xbd294053	-0.04132111
177	0xbd8a0f10	-0.06741154
178	0xbc52f549	-0.012875863
179	0xbdab3ccb	-0.08361205
180	0xbdb7d12c	-0.08975443
181	0x3d8a97be	0.06767224
182	0xbcc8b32b	-0.024499496
183	0x3d9f98b9	0.077928014
184	0x3c8ab0f3	0.01693008
185	0xbd8de47f	-0.06928348
186	0xbd6e7f9a	-0.05822716
187	0x3d01997e	0.031640522
188	0xbcf1075c	-0.029422455
189	0x3d99ed6f	0.0751599
190	0xbd023730	-0.031790912
191	0xbd4361c9	-0.047700677
192	0xbd4cb233	-0.04997463
193	0xbdb228ed	-0.08699212
194	0x3d9a864d	0.07545147
195	0xbd421ce8	-0.04739085
196	0xbbaeadbd	-0.00533077
197	0x3d0609c5	0.03272416
198	0xbcc38771	-0.023868294
199	0xbda109b1	-0.078631766
200	0xbd359d0f	-0.044339236
201	0xbdc0108a	-0.093781546
202	0xbda14f24	-0.07876423
203	0xbd9eee41	-0.07760287
204	0x3d789d11	0.060696665
205	0xbc859dfd	-0.016310686
206	0x3d898ce1	0.06716324
207	0x3cebece7	0.028799487
208	0xbd6bb27e	-0.05754327
209	0x3d184f43	0.037184965
210	0xbc366111	-0.011131541
211	0xbccecdc1	-0.025244595
212	0x3d4a5269	0.049395
213	0xbcab6894	-0.02092389
214	0x3d554262	0.05206526
215	0x3cd77624	0.026301451
216	0xbd3b3090	-0.04570061
217	0x3d2be67c	0.041967854
218	0xbd66ad3b	-0.05631755
219	0xbd88649f	-0.06659817
220	0x3d6ea2e2	0.058260806
221	0x3da4cb9a	0.080466464
222	0xbc92bd1c	-0.01791244
223	0xbd86ae1d	-0.06576178
224	0x3dab130c	0.08353242
225	0x3d01119e	0.03151094
226	0xbd4c1ca9	-0.04983202
227	0xbcf6da7c	-0.030133478
228	0x3cd78e75	0.026313046
229	0x3d6181dd	0.055055488
230	0x3d143dc0	0.036191702
231	0x3d74a12d	0.05972402
232	0xbcb31291	-0.02185944
233	0xbce85fca	-0.028365988
234	0xbd4bcba4	-0.049754754
235	0xbcfab86b	-0.030605515
236	0xbd38efaa	-0.045150436
237	0x3d270430	0.040775478
238	0x3d1d6111	0.038422648
239	0xbd80c70f	-0.062879674
240	0x3dae5192	0.08511652
241	0xbd673747	-0.0564492
242	0xbd93bb90	-0.07213509
243	0x3da233a6	0.079200074
244	0xbd7595dc	-0.05995737
245	0xbd8879f1	-0.066638835
246	0x3ca11ce6	0.0196671
247	0xbcd0cb8f	-0.02548769
248	0xbd620710	-0.055182517
249	0xbda6064b	-0.08106669
250	0x3c3217c3	0.010869923
251	0xbd923cf4	-0.07140532
252	0xbd43fc04	-0.047847763
253	0xbda6c506	-0.08143048
254	0xbd38ce11	-0.045118395
255	0xbda0136e	-0.07816206

fc.0.bias f4 [32]
0	0xbd149450	-0.036274254
1	0xbc966692	-0.018359456
2	0xbc0e5f42	-0.008689703
3	0x3db10980	0.0864439
4	0xbdb457b0	-0.088057876
5	0x3c753ba5	0.014967834
6	0xbd49506e	-0.04914897
7	0xbd679c42	-0.056545503
8	0x3bbc7b84	0.005752029
9	0x3d911293	0.07083621
10	0x3c271b47	0.0101993745
11	0x3d1369fa	0.03598974
12	0x3caf9b1a	0.021436263
13	0xbd18fefb	-0.037352543
14	0xbcdabcce	-0.026701357
15	0xbbb56ae9	-0.0055364263
16	0x3c54edea	0.012996176
17	0xbb134b4f	-0.0022475307
18	0xbcc76db5	-0.024344305
19	0x3d545823	0.051841866
20	0x3d7a4627	0.06110206
21	0x3d402154	0.046906784
22	0x3d08e268	0.033419043
23	0xbd0100c6	-0.03149488
24	0x3bc5a25d	0.006031318
25	0xbbd7da04	-0.006587269
26	0x3cc6fb0b	0.024289628
27	0x3d9c7854	0.07640138
28	0xbd3e78ec	-0.04650204
29	0x3cb31093	0.02185849
30	0xbd8081e4	-0.06274775
31	0x3ca0f95f	0.01965016

fc.1.weight f4 [32]
0	0x3f8255aa	1.0182393
1	0x3f8239c4	1.0173879
2	0x3f82919e	1.0200689
3	0x3f8256bd	1.018272
4	0x3f816ec8	1.0111933
5	0x3f8293bd	1.0201336
6	0x3f824f31	1.0180417
7	0x3f821cf8	1.016509
8	0x3f829270	1.0200939
9	0x3f81ad32	1.013098
10	0x3f814cc7	1.0101556
11	0x3f825761	1.0182916
12	0x3f82417a	1.0176232
13	0x3f7e7528	0.99397516
14	0x3f822a50	1.0169163
15	0x3f82b125	1.021031
16	0x3f824c44	1.0179524
17	0x3f827e8f	1.0194873
18	0x3f824e7c	1.0180202
19	0x3f81b61d	1.0133702
20	0x3f825499	1.0182067
21	0x3f828007	1.0195321
22	0x3f816968	1.0110292
23	0x3f825d0c	1.0184646
24	0x3f826c31	1.0189267
25	0x3f827709	1.0192577
26	0x3f828a50	1.019846
27	0x3f82175e	1.0163381
28	0x3f805352	1.0025427
29	0x3f82280b	1.016847
30	0x3f81fefc	1.015594
31	0x3f7e4626	0.9932579

fc.1.bias f4 [32]
0	0x3c3edfb0	0.011650011
1	0x3bf4d0b1	0.007471167
2	0x3c9cff27	0.019164635
3	0x3c4ec4d8	0.012620173
4	0x3b4b853a	0.003105475
5	0x3ca164d0	0.019701391
6	0x3c88e5f5	0.016711215
7	0x3c32d529	0.010915079
8	0x3ca4594a	0.020062108
9	0x3c1248e3	0.00892851
10	0xbb3a7470	-0.002845075
11	0x3c90922b	0.017647823
12	0x3c05f578	0.0081762
13	0xbc3bc5d2	-0.011460738
14	0x3c895c8f	0.016767768
15	0x3ca808ff	0.020512102
16	0x3c8fe92c	0.01756724
17	0x3ca05ed0	0.01957646
18	0x3c3c725c	0.011501875
19	0xbaa6d9ae	-0.0012729669
20	0x3c931d57	0.017958326
21	0x3ca47e2c	0.020079695
22	0xbc2b85f0	-0.010468945
23	0x3c9d9e63	0.019240564
24	0x3c9fafcf	0.019493012
25	0x3c9dca0d	0.019261384
26	0x3ca1c65b	0.019747904
27	0x3c238b36	0.009981921
28	0xbbe29644	-0.0069148857
29	0xbb746ad0	-0.003729511
30	0x3b9beb6a	0.004758288
31	0xbc38cd17	-0.011279366

fc.1.running_mean f4 [32]
0	0xbf33d324	-0.7024405
1	0x3edf2199	0.4358032
2	0x3e89eff9	0.26940897
3	0x3ec8d9b5	0.39228597
4	0x3e7c2389	0.2462293
5	0xbeb2f59c	-0.3495301
6	0xbdd519c9	-0.10405309
7	0xbf85c119	-1.0449554
8	0x3f1ac5a7	0.60457844
9	0x3e876851	0.26446775
10	0xbeda7bf8	-0.42672706
11	0x3f256f55	0.64623004
12	0xbed5e0c0	-0.41773033
13	0xbd864dd0	-0.0655781
14	0x3f10ef3f	0.5661506
15	0x3d9c2907	0.07625013
16	0xbef1bc2e	-0.47213882
17	0x3f43d40c	0.7649543
18	0xbef00c18	-0.46884227
19	0xbf800455	-1.0001322
20	0xbe40201a	-0.18762246
21	0x3f807b5e	1.0037649
22	0xbf0c5ce5	-0.54829246
23	0x3fb721e0	1.4307213
24	0x3df6af63	0.12045171
25	0xbf05e093	-0.522958
26	0x3c543601	0.012952329
27	0xbf89e2f1	-1.0772382
28	0xbdfb81d7	-0.12280624
29	0xbe9bdd8f	-0.30442473
30	0x3eec423a	0.46144277
31	0x3e0637b2	0.13107184

fc.1.running_var f4 [32]
0	0x4393a9fe	295.32806
1	0x4345ff40	197.99707
2	0x42ebc24b	117.87948
3	0x43196e63	153.4312
4	0x430fd3b2	143.82693
5	0x43f13c97	482.47336
6	0x431fec92	159.9241
7	0x4415848d	598.0711
8	0x42fa6e95	125.21598
9	0x43d6f92c	429.94666
10	0x4291b914	72.86148
11	0x435757ed	215.34346
12	0x42e25896	113.17302
13	0x43299aa2	169.60403
14	0x429d5f34	78.68594
15	0x4319276a	153.15396
16	0x427b8f27	62.889797
17	0x43bb6e99	374.86404
18	0x434d5fea	205.37466
19	0x42f045bf	120.13622
20	0x42b68fcd	91.28086
21	0x42f794bc	123.7905
22	0x4254085e	53.00817
23	0x4392262c	292.29822
24	0x4320a16b	160.63054
25	0x434ba044	203.62604
26	0x431e8b45	158.54402
27	0x4389ad12	275.3521
28	0x42a70f92	83.53041
29	0x4255ed7c	53.48192
30	0x42939822	73.797134
31	0x43a4f235	329.89224

fc.3.weight f4 [3, 32]
0	0xbe35ca2c	-0.17752904
1	0xbe029b68	-0.12754595
2	0x3e2124a3	0.15736632
3	0xbe121314	-0.1426509
4	0x3da50a25	0.080585755
5	0x3e02f3d1	0.12788321
6	0xbbb7219e	-0.0055887243
7	0xbdc602ab	-0.096684776
8	0x3df6ab77	0.12044423
9	0xbe259bbb	-0.16172688
10	0xbc7f0d51	-0.01556714
11	0x3b99e9a2	0.0046970407
12	0xbd5dc432	-0.054142185
13	0xbdb0d36b	-0.08634075
14	0x3cf8b49c	0.030359559
15	0x3d582a49	0.0527747
16	0xbcf1ada4	-0.029501744
17	0x3e003cc3	0.12523179
18	0xbe2cbdab	-0.16869228
19	0xbd227fcf	-0.03967267
20	0xbd48552e	-0.04890936
21	0x3c618330	0.013764188
22	0x3cf5db17	0.030011697
23	0x3e076a59	0.13224162
24	0xbd2ab6a1	-0.041678075
25	0x3d0eb413	0.0348397
26	0x3e2f6b53	0.17130785
27	0xbdf74586	-0.120738074
28	0xbe33ea25	-0.17569788
29	0xbe09c561	-0.134542
30	0xbe21a59b	-0.1578583
31	0xbd7584d2	-0.05994112
32	0xbb6916a9	-0.0035566485
33	0x3e0b4b5f	0.1360297
34	0x3d7cb02d	0.06169145
35	0x3d8bdf3e	0.068296894
36	0x3e3c2297	0.1837257
37	0xbcebd714	-0.02878908
38	0x3d470b65	0.04859485
39	0x3dda16df	0.106488936
40	0xbe0de3b8	-0.13856399
41	0x3d01f5dd	0.031728614
42	0x3cf095ef	0.029368369
43	0xbd8f91d8	-0.07010239
44	0x3e3f18f8	0.18661869
45	0xbdfeedbd	-0.12447689
46	0x3df0f897	0.11766165
47	0xbbeb3f0c	-0.0071791466
48	0x3ba6ceff	0.005090594
49	0xbe24565a	-0.16048566
50	0x3e151dba	0.14562121
51	0xbe42b099	-0.19012679
52	0xbca9d5c2	-0.02073181
53	0xbe17ae4f	-0.14812587
54	0x3cf9a5e6	0.030474614
55	0x3b40abca	0.002939927
56	0xbe2c65fb	-0.16835777
57	0xbe256b72	-0.16154268
58	0xbe0a191c	-0.13486141
59	0x3db60802	0.08888246
60	0xbdd8e7fd	-0.10591123
61	0xbe3d7d89	-0.18504919
62	0xbd5300ea	-0.051514544
63	0xbd67da8b	-0.056604903
64	0xbde31c2d	-0.110893585
65	0xbdbc9f68	-0.09210092
66	0x3d0b7c73	0.03405423
67	0xbe079b36	-0.13242802
68	0x3e0bd1e1	0.13654281
69	0xbcba212f	-0.022720901
70	0xbd52f6e4	-0.051504984
71	0xbde49394	-0.11160961
72	0xbd84222d	-0.06451831
73	0xbdf32c76	-0.118737146
74	0x3d63f7cc	0.05565624
75	0xbbb00fbc	-0.0053729694
76	0x3d728c34	0.05921574
77	0x3cbb9115	0.022896329
78	0xbe30434c	-0.17213172
79	0xbd1b2abb	-0.037882548
80	0xbe408392	-0.1880019
81	0x3d506cc5	0.05088498
82	0xbcd0958f	-0.02546194
83	0x3e25249e	0.1612725
84	0xbe30741b	-0.1723179
85	0xbd6e0029	-0.05810562
86	0x3e217af6	0.15769562
87	0x3e145199	0.14484252
88	0xbd291a07	-0.041284587
89	0xbe017d88	-0.12645543
90	0x3df1c12d	0.118044235
91	0xbdb76360	-0.08954501
92	0x3d55c3bb	0.052188616
93	0x3e30a00d	0.17248555
94	0xbd35a72d	-0.044348884
95	0xbd2d5ce7	-0.042324927

fc.3.bias f4 [3]
0	0xbc888b0b	-0.016667863
1	0x3e12f80d	0.14352436
2	0xbdb14c61	-0.08657146
