models/student/S2_net_att.pt (torch, 207896 bytes, 25 tensors)

conv1.0.weight f4 [16, 1, 9, 1]
000000 89 73 d7 3d 33 d4 e1 3d b6 fa 88 be 73 70 4c be
       0.105200835 0.11026802 -0.26753777 -0.19964771
000010 66 0b 5b 3e f9 aa 10 be 42 51 d8 bd 66 79 92 3c
       0.21391067 -0.14127721 -0.10562374 0.017880153
000020 5d 75 28 3e 8e 22 aa 3e 7f a6 39 3e 10 dd 8d 3d
       0.1645102 0.33229488 0.1812992 0.0692693
000030 aa bc 46 bd 11 39 9f be 52 e3 31 bd df 97 34 3e
       -0.048519768 -0.31098226 -0.04342968 0.17636059
000040 8c 6f 58 3e 4e 90 15 be 3d fb e9 bd 1a b4 76 3e
       0.21136302 -0.14605829 -0.11424873 0.24092141
000050 47 cc 1c 3e 05 12 21 3c 41 0b 07 be 7a c1 6c 3d
       0.153123 0.009830956 -0.13187887 0.0578017
000060 d0 33 a9 3e a9 65 76 be cd d4 73 be a3 a0 a6 bd
       0.33047342 -0.24062218 -0.23811646 -0.08136108
000070 83 d9 06 be cc 5a 8c be e2 72 72 3e c6 04 7b 3e
       -0.13168912 -0.27413023 0.23676637 0.2451354
000080 92 cf 94 3e 8c 4a 7a bc e8 39 bd 3d 4b c9 00 3e
       0.29064614 -0.015276562 0.0923956 0.12576787
000090 bd e7 5f 3e 2a 45 96 3e 74 dd dd bc f8 3d 6f be
       0.21865745 0.29349643 -0.027083136 -0.23363483
0000a0 26 54 af 3e 0c e7 3d be fa 5f 64 3e b5 42 ef 3d
       0.34243888 -0.18545169 0.22302237 0.11682645
0000b0 72 c3 13 be d2 19 56 3d d1 e4 6d 3d 36 3b 87 3e
       -0.14430025 0.052270718 0.058079544 0.26412362
0000c0 77 b2 20 be 66 17 8a 3e 1a 5c 24 3e 4f 32 9e 3d
       -0.15693079 0.26970977 0.16050759 0.07724439
0000d0 fc 96 23 be 52 a1 cd 3d 3f 1d 94 be 9a 33 78 be
       -0.15975565 0.10040535 -0.28928563 -0.24238434
0000e0 d3 01 a0 be 18 3c b5 ba 15 13 ae 3d 4a a8 f6 3d
       -0.31251392 -0.0013827113 0.08499733 0.12043817
0000f0 bd b7 84 be 71 bf ec bd 8b 11 39 be 27 4c 20 bb
       -0.2592143 -0.11559952 -0.18073098 -0.0024459453
000100 0f e0 72 3d e0 c6 a0 bd df 1a f7 bd df 2d 19 3d
       0.05929571 -0.078504324 -0.12065672 0.03739726
000110 0b ac 8f 3e f7 b9 8e 3b d3 fb 74 3e da 10 6a be
       0.28060946 0.004355665 0.23924188 -0.22857991
000120 0c 4f 3a 3e 91 3b 2a bd 61 30 05 3e 02 55 6e bd
       0.18194216 -0.041560713 0.13006736 -0.05818654
000130 a7 67 82 3e 55 14 34 3e 4c 5c 21 3e e5 4a 3e 3d
       0.25469705 0.17585881 0.15757865 0.046458144
000140 70 8c 2d 3e 18 ea 0d 3d 3b 0a 8b 3e d9 c8 77 3e
       0.16948104 0.034647077 0.27156243 0.24197711
000150 64 49 04 bc c0 95 61 3e 08 c8 e2 bd 48 92 79 be
       -0.008074138 0.22029781 -0.11073309 -0.24372208
000160 7b 97 a8 bc 78 b1 a3 3e fb 0e ea bb bf bd 79 3e
       -0.020580044 0.31971335 -0.007142899 0.24388789
000170 94 a5 ac be 4e 1c bb bd 36 4c ba bd 10 be 52 3e
       -0.33720076 -0.09136258 -0.09096567 0.20580316
000180 15 57 52 3e 1c 65 53 3e 75 6b 1d be 56 93 de 3c
       0.20541032 0.20644039 -0.15373023 0.027169865
000190 7a 46 8b 3e a8 4f 7a be 68 ec 88 3e 1a 17 ef bd
       0.27202207 -0.24444449 0.26742864 -0.11674328
0001a0 e9 84 82 be 0f d6 17 3e 1b ee 89 3e 7a 24 86 be
       -0.25492027 0.1482775 0.26939473 -0.26199704
0001b0 c2 7c c1 3c 90 90 00 3d 7e 62 54 3e 3c 55 b5 3e
       0.02361906 0.031387866 0.20740697 0.3541659
0001c0 2d 7b 12 3e 5b ee 63 be c7 0a af 3e 5b fc 4a be
       0.143048 -0.22258894 0.3418791 -0.19822828
0001d0 cb 36 7a bd 73 60 75 be 53 ed 9a bd 7b 89 a9 3c
       -0.06108741 -0.23962574 -0.07564797 0.020695439
0001e0 87 0c 87 3d e6 a6 4f 3e a5 8b 0b 3e 75 a1 88 bd
       0.06594186 0.2027851 0.13627489 -0.066714205
0001f0 f4 57 20 be 4d cd 07 bd bf 28 13 bd 37 ba b4 bd
       -0.15658551 -0.033154774 -0.03592753 -0.0882458
000200 8f b7 f6 3b 91 b9 a3 3e 98 dc 0e 3e 29 bd 26 bc
       0.007529206 0.31977513 0.13951337 -0.010176935
000210 05 95 54 be 17 4f 72 3e 8d bc 9f 3e 6b a0 44 3d
       -0.20759971 0.23662983 0.3119854 0.04800455
000220 fb 73 75 3d 47 84 b7 bc af 2e a4 be 91 54 eb bd
       0.05992506 -0.022401942 -0.32066867 -0.11490739
000230 2f 9a 33 bc b2 d1 a3 be 00 14 48 be 67 bd 86 3e
       -0.010962053 -0.31995922 -0.1953888 0.26316378

conv1.0.bias f4 [16]
000000 5c 3c 38 be 38 95 48 3e 57 04 77 3e 11 84 86 be
       -0.17991775 0.19588172 0.2412275 -0.26272634
000010 59 6d 60 be 9b f2 9b bc 55 89 86 3d e8 66 d3 3e
       -0.21916713 -0.019036582 0.06569163 0.4128945
000020 04 78 2b be c9 38 02 be 76 c4 81 be 7d c9 81 3e
       -0.16745001 -0.12716974 -0.253452 0.25349036
000030 95 37 80 3e 14 1f 44 be 22 41 99 3d 99 fe b9 bc
       0.25042406 -0.1915248 0.07483126 -0.02270441

conv1.2.weight f4 [32, 16, 1, 9]
000000 9b 6a 93 bd 4a 19 ec bc cb 5a c3 bd df d9 31 bd
       -0.07198068 -0.028820653 -0.09538802 -0.04342067
000010 78 08 80 bc f6 27 95 bd ea f7 40 bd 85 38 11 bd
       -0.015629038 -0.072830126 -0.04711143 -0.03545429
000020 48 e2 6d bd d5 db 5f bd 2f 05 7c 3d e9 d2 34 3d
       -0.058077127 -0.054653008 0.06152838 0.044146452
000030 57 40 e6 ba 2b 4b a7 bc 02 d9 98 3c 70 71 6d 3d
       -0.0017566782 -0.020421585 0.018658165 0.05796951
000040 8c f0 b1 bd 36 17 3d bd d2 54 65 bc c6 ac a2 bd
       -0.08688459 -0.046164714 -0.0139972735 -0.0794311
000050 9c 22 19 3d b5 e6 8f 3c 08 84 64 3c b7 0c 20 3d
       0.03738652 0.017566064 0.013947494 0.039074626
000060 d8 dd 6e bd eb db a3 bd bb 79 33 bd 27 f2 c2 3c
       -0.058317035 -0.080009304 -0.043817263 0.023797108
000070 ed 4b 78 bd ca 5b 68 bd 2f a7 b5 bb 3d 3a 88 3d
       -0.060619283 -0.056728162 -0.0055436115 0.06651733
000080 ed b9 b0 3d 8d aa 48 3b 7f b7 dc bd c7 51 b3 3c
       0.086292125 0.0030619234 -0.107771866 0.02188958
000090 0d 70 1f bd 19 cc d1 3c a1 d9 1f bd 49 3f ca bd
       -0.03892522 0.025610017 -0.039025906 -0.09875352
0000a0 aa 78 64 3d f7 76 82 3d 01 15 89 3c d5 42 d7 3c
       0.055779137 0.06370347 0.016733648 0.026276985
0000b0 a6 05 55 bc 3e e3 a9 bc 47 50 9d bd 7b d2 72 3d
       -0.013001835 -0.02073824 -0.07681327 0.05928276
0000c0 6e 7e 0c 3d df 7b b6 bc ed 0c c3 bc 61 b4 55 bd
       0.03430026 -0.022275863 -0.023809874 -0.052173976
0000d0 3c 7f c2 bd 85 50 19 3d 9a 07 de 3c 78 e0 ef 3b
       -0.09496924 0.037430305 0.027103234 0.00732046
0000e0 8b 29 bb bd d9 8c 3a bc 5b 80 5f bc 7c 02 96 bd
       -0.09138783 -0.01138612 -0.013641442 -0.073246926
0000f0 3e 87 74 3d ca 2a 85 3b 38 84 6f 3d d2 f9 4c bd
       0.05969929 0.0040639387 0.058475703 -0.050042935
000100 12 f7 12 3d 86 19 cd bd 12 dd 36 3d 04 7c 1c 3d
       0.035880156 -0.10014634 0.044644423 0.038204208
000110 8d e3 04 bd a2 be 86 bd 60 fd 63 3d 6b a3 a8 bd
       -0.03244357 -0.06579329 0.05566156 -0.082342945
000120 4a 35 82 3c 51 60 c4 bc e1 95 0a bd f2 19 99 bd
       0.01589455 -0.023971708 -0.033834342 -0.07475652
000130 9f 3e 54 3d 26 0d 80 bd 56 a1 7c bc dd 77 3b 3d
       0.051817533 -0.06252508 -0.015419325 0.045768607
000140 cd 7d 77 bd 56 12 8b bc 84 ff 67 3d f3 ff 0b bd
       -0.060422707 -0.016976517 0.056640163 -0.03417964
000150 13 da b9 bd 4c 7c d8 3c e0 e3 06 bd f7 9f e3 3b
       -0.090747975 0.026426457 -0.032932162 0.0069465595
000160 72 ce 0c 3c 9a c7 66 3d 8f 68 1c bd 18 6b b5 3c
       0.008594142 0.0563427 -0.038185652 0.022145793
000170 81 cb 11 bd 8c bf d6 bd 6d a2 52 3d 6b ee 1c 3d
       -0.035594467 -0.104857534 0.051424433 0.03831331
000180 1c f9 d2 bc 8a 54 8b 3d 37 63 16 3d 93 a7 25 3d
       -0.02575355 0.06803234 0.036715712 0.040443014
000190 ea e2 fb 3b 01 e8 9b bd c7 91 0e bb ec b8 60 3d
       0.0076869624 -0.076126106 -0.002175437 0.054863855
0001a0 1f 4b c5 bd a7 9e 84 bd 7f dc 23 3d c8 12 bf bd
       -0.09633469 -0.06475573 0.040005203 -0.09329754
0001b0 96 1a 41 bd c4 0d 26 3d a2 51 7e bd c7 08 91 bd
       -0.047144495 0.04054047 -0.06208957 -0.07081752
0001c0 b0 31 0a bd 18 57 82 bd 71 1e 81 bc 87 1e 59 bd
       -0.033738792 -0.06364268 -0.015761586 -0.05300763
0001d0 75 d7 bc bd a1 12 82 3d 50 75 4c bc 58 c9 23 3d
       -0.09220783 0.063512094 -0.012479141 0.03998694
0001e0 b2 f5 20 bd d7 58 4f bd 51 21 b4 bd bb 0c 64 bb
       -0.039296813 -0.050621834 -0.08795417 -0.0034797627
0001f0 00 08 51 bd 6e 1d d8 bc f3 c9 ec 3c ea 58 79 bd
       -0.05103302 -0.02638122 0.02890489 -0.06087581
000200 60 82 74 bd c5 0d 0f 3d fd e1 de 3c 53 c8 8f bd
       -0.059694648 0.03492524 0.027207369 -0.07020631
000210 83 85 1d 3d 5c c2 14 3d c8 19 fa 3c 21 6f 1b bd
       0.038457405 0.036318168 0.030529872 -0.037947778
000220 9b b5 c2 bb 74 94 3c 3d 1a 2e 92 bd 8b 80 b7 bd
       -0.005942059 0.046040013 -0.071376994 -0.089600645
000230 ca 29 ba bd f2 f6 db bc 92 fc 16 bd f0 61 37 bd
       -0.09090002 -0.026851151 -0.036861964 -0.044771135
000240 83 f4 1d 3c 7f 92 71 3d 6e f2 0f 3c f2 90 86 bc
       0.009640816 0.0589776 0.008785827 -0.016426537
000250 cc 5a 9c bc 18 a1 ef 3c fe 6f 9d bc ad e2 a1 bd
       -0.019086264 0.02925162 -0.019218441 -0.07904563
000260 13 a1 f0 bb 4b 93 71 bc 4c 09 1f bd b9 ce ba bd
       -0.0073434203 -0.01474459 -0.038827226 -0.091214605
000270 dd 7a d9 bc d4 13 a2 bc 16 03 02 3d 37 85 bc bc
       -0.026547844 -0.019784845 0.031741224 -0.02301274
000280 9c 9e 98 bd 07 9f 3d 3d 71 0f ba bd e3 38 23 bd
       -0.07452127 0.04629424 -0.090849765 -0.039849173
000290 ac 4d bd bd 09 a8 c7 bd da ca f7 bc 2c 64 58 bc
       -0.0924333 -0.09748847 -0.030248094 -0.013207477
0002a0 73 6d 97 3c 76 95 66 3c 6b c8 06 3d 1b 28 9e bd
       0.018484807 0.01407372 0.032905977 -0.07722493
0002b0 81 2f d6 3c 5c bf 82 3d 01 ea ca 3d 33 72 9b 3b
       0.026145699 0.06384155 0.09907914 0.004743838
0002c0 27 ff 5c 3c 5f 5f 60 bd fd 7d 3c 3d ee 13 48 bc
       0.013488567 -0.054778453 0.04601859 -0.012211783
0002d0 8d 4d 52 bd 6e 62 bf bc 46 a9 07 3d 08 1c f6 3c
       -0.05134349 -0.023362365 0.033120416 0.030042663
0002e0 94 1a 65 3d 0d ad 2d bd 96 c6 0d bd 8d a3 bd bd
       0.05593355 -0.042401362 -0.034613214 -0.092597105
0002f0 db 21 be 3c b2 64 53 bc ac 07 5b bd 69 40 1d bd
       0.023209503 -0.012902426 -0.053474113 -0.038391504
000300 2d ff 52 bb 36 55 a9 bc 1d 73 81 bd f1 8a 9e 3b
       -0.0032195554 -0.020670515 -0.06320784 0.0048383405
000310 cd fa 74 bd e2 0a 90 bd 2b 24 22 3d 3d 97 89 3d
       -0.059809495 -0.07033326 0.039585274 0.067182995
000320 86 ee 94 bc e8 3e ba bc c6 95 61 3c 6d 98 83 bd
       -0.018180143 -0.022735074 0.013768619 -0.06425557
000330 ef c4 32 bd 9b 02 9d bd a1 0f 56 3c 2c cb bd bc
       -0.04364484 -0.076665126 0.01306525 -0.023168169
000340 20 81 b1 bd 09 8c 79 bd 38 7b d1 3d 35 5c a6 bd
       -0.08667207 -0.060924564 0.1022858 -0.08123056
000350 05 12 22 3d fc 4a 8b 3c 71 d3 87 3d 9c 05 85 3d
       0.039567966 0.017003529 0.06632126 0.064952105
000360 3c ff 14 bc 83 08 48 3d 89 0e a4 bd 4d 7a 8d bd
       -0.009094056 0.048836242 -0.08010585 -0.06908093
000370 38 01 39 bd 5a 29 64 bd ab 42 2d 3d 36 8c 8a bd
       -0.045167178 -0.0557035 0.042299908 -0.06765024
000380 96 d6 b2 bd 61 fd 60 3d 9c de 4e bc 88 aa bc 3c
       -0.08732335 0.05492914 -0.012626316 0.023030534
000390 9f 69 b7 bd 77 8d b0 bd 1e c2 23 3c e3 74 c3 bd
       -0.089556925 -0.08620732 0.009995012 -0.09543779
0003a0 a3 8c 5c bc 85 fb 15 3d a8 6d a0 bc fb e3 f8 3c
       -0.013461265 0.03661682 -0.019583538 0.030382147
0003b0 4a 25 7c 3a db b1 4f bc d8 ca 85 3b 83 a9 74 3b
       0.00096185936 -0.012676681 0.0040830187 0.0037332482
0003c0 a2 e6 59 bd 44 db 64 bd 41 31 a6 bd 5f e5 a2 bc
       -0.053198464 -0.05587317 -0.08114863 -0.019884763
0003d0 71 9f 88 3d 1d 54 c7 bd c1 9e b9 3b e3 3f b1 bc
       0.06671036 -0.0973284 0.005664677 -0.021636909
0003e0 91 22 48 bc 03 66 40 3d ac 70 0d bc 9b 32 57 3c
       -0.0122152725 0.046972286 -0.00863282 0.013134624
0003f0 33 ee 33 3c 69 55 3f 3d 3e cf a6 bd 36 f8 82 bd
       0.010982084 0.046712313 -0.08144997 -0.06394999

conv1.2.bias f4 [32]
000000 1a 8c c6 3c bb aa a9 bd 92 cb cb 3c f9 ab 90 bc
       0.024236728 -0.082845174 0.024877343 -0.017660128
000010 4e 49 07 bb 59 1c c1 bd f8 97 09 bd bc 03 cd bd
       -0.0020643058 -0.09429235 -0.033592194 -0.10010478
000020 aa 8e 58 bd 63 92 f2 3c 04 34 18 bb 1f 6f e2 ba
       -0.05287043 0.029610818 -0.0023224363 -0.0017275548
000030 35 03 85 3c 8a e7 50 bc ba 88 c3 3d 60 b3 ba 3d
       0.01623688 -0.012750516 0.09547563 0.09116244
000040 52 81 06 3d 96 bb 2a bd be 6b c2 3c be 18 f2 3c
       0.032838173 -0.041682802 0.023733016 0.029552814
000050 e8 67 6f 3d ad e9 6f 3d bb f7 23 3d 9f df 80 3d
       0.058448702 0.05857246 0.040031176 0.06292652
000060 26 dd 32 bd d9 fd 28 bc e1 77 d2 3d 1e 2b 42 bc
       -0.043667935 -0.010314428 0.10276771 -0.0118511
000070 45 6f 9a 3d 15 70 db 3c 06 63 81 bd 86 2c cc 3b
       0.07540754 0.026786843 -0.06317715 0.0062308935

conv2.0.weight f4 [32, 32, 9, 1]
000000 4d 02 3c bc d8 e0 93 bc 2e 7d c6 bc 73 68 67 3d
       -0.011475158 -0.01805155 -0.024229612 0.056496095
000010 a0 02 00 3d c2 ad fd bc 81 e0 f0 bb 62 4b 0e 3d
       0.031252503 -0.030966643 -0.0073509817 0.03473986
000020 b3 ca 96 bc ca 44 72 3d ba ac 1b 3d e5 03 e2 bc
       -0.018407201 0.059147634 0.03800652 -0.027589748
000030 71 ba 13 3d d2 a1 ec bc 8a 2a 84 3c 4c a0 35 bd
       0.036066476 -0.028885756 0.016133565 -0.044342324
000040 79 15 5d bc 25 e9 05 bd 0a 1e 8a 3d ab 22 4a 3d
       -0.013493889 -0.032693047 0.06744011 0.04934947
000050 dc 40 bb bc 5d f3 a7 ba 33 4b bf 3c bb d5 01 3d
       -0.022858076 -0.0012813617 0.023351287 0.03169797
000060 8b ed b0 3c 2f 20 b2 3d 0e 1d ee bc 9f 64 3d 3d
       0.021597644 0.08697545 -0.029066589 0.046238538
000070 12 6d f6 bc 80 d7 08 bd 17 23 fe 3b e9 c8 26 3c
       -0.030081306 -0.03340864 0.007755648 0.010179737
000080 bd bd 6b 3c dc d3 9b 3d 11 55 3b 3d c7 dd 5f 3d
       0.014388499 0.07608768 0.045735423 0.054654863
000090 ca bb 67 3c 22 ea c8 bc b5 3e 42 3d 53 fa ea 3b
       0.0141438935 -0.024525706 0.047423083 0.0071709543
0000a0 a2 24 46 3d 5b 79 1b 3d 0e 07 15 bd e1 56 c7 3c
       0.04837478 0.03795753 -0.03638368 0.02433342
0000b0 ce 02 12 bd 34 df aa bd 49 b0 fa bd 1d 4b c2 bc
       -0.035647206 -0.08343354 -0.12240655 -0.023717457
0000c0 32 93 7a 3c 83 0e 02 bd 7a 47 f3 bc ed d8 56 3c
       0.015293883 -0.03175212 -0.029697169 0.013113243
0000d0 20 88 60 3c 8a 7e 7f 3c f8 74 f4 bc 31 5f 2e 3c
       0.01370433 0.015594134 -0.029840931 0.010642813
0000e0 af eb b9 3c 90 50 55 bb d2 b1 62 bd 80 55 5e 3b
       0.02269539 -0.003254924 -0.055345364 0.0033925474
0000f0 07 29 fb 3b 96 6d 86 3d 0a bc 0c 3d 9b 9a 3c bd
       0.007664803 0.065638706 0.034359016 -0.04604588
000100 0f 9c 55 bb a2 47 93 3d b3 fa ca bc 54 80 29 3c
       -0.003259424 0.07191397 -0.024777746 0.010345537
000110 2f 23 c8 3c dd d1 86 3d 25 27 2b 3b 3e de 31 3d
       0.02443084 0.06582997 0.0026115861 0.043424837
000120 fe 1b 0f 3d b0 77 31 3d a3 0b e5 bc c3 a9 4c 3d
       0.034938805 0.043327034 -0.02795965 0.049966585
000130 df c3 92 bc cf 64 5a 3d 7e ca d5 bc 5b 09 4b 3d
       -0.017915664 0.053318795 -0.026097532 0.04956947
000140 fe 7c af 3d e9 63 24 bb 39 16 f9 3c b3 ea ae bc
       0.08568762 -0.0025083965 0.030406104 -0.021352148
000150 be f4 47 3d 81 bc 3a bd 00 9e b9 bb ce 98 6d 3d
       0.04881739 -0.045589928 -0.005664587 0.058007054
000160 20 4d bd bc f8 eb 83 bc ec 12 11 3d 35 2c 8a 3d
       -0.023108065 -0.01610373 0.035418436 0.06746713
000170 49 4b 85 3d 22 8c ae 3b 51 14 d3 bc 06 46 21 3d
       0.065085 0.0053267637 -0.025766524 0.03937342
000180 84 6e 7c 3d 3b 9f 67 3c ac 75 51 3d 80 1b ce 3c
       0.061628833 0.014137085 0.05113761 0.025159597
000190 2d 65 c2 3c e7 a8 82 3b 76 dd 18 3d 94 76 c7 3a
       0.023729885 0.00398742 0.037320577 0.0015217834
0001a0 7a 0f 0a bd 7a 51 a3 ba d6 dc 0d bd 8e 2c ef bc
       -0.033706166 -0.0012460195 -0.034634434 -0.02919605
0001b0 37 c4 3b 3d 19 cb 40 3b 41 6d 68 3d fc 16 be 39
       0.045841422 0.002941793 0.056744818 0.0003625675
0001c0 b3 44 66 bc 34 3a 2a bd ee e3 28 bc 0f 72 0c bc
       -0.014054465 -0.041559413 -0.010308249 -0.008572116
0001d0 04 42 82 3d 10 c6 df 3c 58 3f 7b 3c ee 35 30 bd
       0.06360248 0.027316123 0.015334927 -0.04302018
0001e0 37 e2 89 3c b8 8c 5b b8 15 ae e1 3c 4b 8e 89 3c
       0.0168315 -5.2344723e-05 0.02754883 0.016791483
0001f0 dc 9a eb bb 1c 85 ff ba 1f 01 a6 bd f4 13 14 3c
       -0.0071900915 -0.0019494626 -0.081056826 0.00903796
000200 71 4c c3 bd 33 44 c2 bd e7 a1 4c bc 0c 18 8e bd
       -0.095360644 -0.09485664 -0.012489772 -0.0693818
000210 aa ba e8 bc 22 69 7c bd 69 75 81 bd 20 d7 f5 3a
       -0.02840932 -0.0616237 -0.06321222 0.0018756129
000220 ae 44 c2 3c 03 22 4a bd 76 f5 c0 bb c4 6e 0c bd
       0.02371439 -0.049348842 -0.005888636 -0.03428532
000230 77 37 80 bc 05 85 8d 3d 8f 12 6c 3d c4 9b 45 3d
       -0.015651448 0.06910137 0.057634886 0.048244253
000240 06 d7 11 bd 74 71 37 3a 5e 3d 49 bd d5 46 fa 3c
       -0.035605453 0.0006997802 -0.04913079 0.030551353
000250 5e b3 a1 bd e4 dc 1a bd f9 a0 b0 bc af df 89 bd
       -0.0789554 -0.037808314 -0.021561133 -0.067321174
000260 61 20 6c bd 8a 6b e5 3c 85 6c 8e 3d 96 64 88 3d
       -0.057648066 0.02800538 0.06954292 0.0665981
000270 25 0d 76 3d 2e 0b c0 ba bc be 90 3d 91 7c 51 3d
       0.06007113 -0.0014651769 0.0706763 0.051144186
000280 0d 31 e2 3b 02 55 5f 3d 95 03 12 3d 94 10 91 ba
       0.00690282 0.05452443 0.035647947 -0.0011067563
000290 db de 1e 3b 2f 21 8a 3b 48 1d 8e 3d 25 d4 6f 3d
       0.002424172 0.0042153816 0.06939179 0.058551926
0002a0 9b 05 5f 3d fd ac d5 bc 02 38 d8 3c 22 a5 2f 3d
       0.054448705 -0.026083464 0.026393894 0.042882092
0002b0 10 1b 66 bb a5 b0 a8 bc 4c b1 c2 3b e1 45 d0 bc
       -0.0035111345 -0.020592043 0.0059415456 -0.025423946
0002c0 82 c7 25 bd a1 29 b6 3a b2 a1 23 3d 07 94 18 bd
       -0.04047347 0.0013897904 0.039949127 -0.037250545
0002d0 fb fa 92 bd a1 4e 1a bd e4 c0 6d 3c 26 3b aa 3c
       -0.07176777 -0.037672643 0.014511321 0.020780157
0002e0 f8 36 00 3d 10 2e f9 3b 7d 83 cc 3c 86 19 e1 bc
       0.031302422 0.007604368 0.024965042 -0.02747799
0002f0 82 3a 36 bd 81 bf b2 bb e4 75 f4 3c 0a f3 82 3d
       -0.04448939 -0.005454958 0.02984137 0.06394012
000300 ae 8a 25 3d 58 e6 4b bc 22 83 83 bc b3 ac e3 3a
       0.04041546 -0.012445055 -0.01605374 0.0017370194
000310 9f 2e 65 bd 75 29 a0 3c 59 75 86 3c b6 a8 3b bd
       -0.055952664 0.019551018 0.016413378 -0.045815192
000320 28 c6 b1 bc 57 98 25 3d 9f e1 53 3c 1f 6d 60 3d
       -0.021700934 0.040428486 0.01293221 0.054791566
000330 c1 e4 ee 3c b9 76 47 bd eb c4 ab 3c 73 ed 31 bd
       0.029161813 -0.048697207 0.020967921 -0.04343934
000340 c9 58 03 bd a1 52 2b bd eb c8 18 3d 16 64 86 bc
       -0.032067094 -0.041826848 0.037300985 -0.016405147
000350 69 3c 66 3d 74 99 1a bd 75 8a b3 3a d6 42 35 3d
       0.056209955 -0.037744 0.001369788 0.044253193
000360 53 89 1c 3d 1e 05 8f 3d 90 bc 1a 3d 79 24 e2 3c
       0.0382169 0.06983398 0.037777483 0.027605282
000370 d5 ee 38 3d 21 ce c4 bc cc ea 97 3d 45 17 41 3b
       0.045149643 -0.024024071 0.07417831 0.0029463333
000380 dd 56 ac b9 41 4f 83 bc ed 31 13 3d 9f 7d 31 3d
       -0.00032871115 -0.016029002 0.035936285 0.043332692
000390 0f 8b f9 3c a4 7d bb bc cd 65 85 bc c2 27 6e 3d
       0.030461816 -0.022887059 -0.016283894 0.058143385
0003a0 c0 bd 2b bd c6 a7 88 bc 09 0e a8 bc 61 a0 a4 3c
       -0.041929007 -0.016681563 -0.020514505 0.020096006
0003b0 d4 d1 9f 3c c2 06 23 ba d4 09 58 bc 14 a4 52 3a
       0.019509234 -0.00062189635 -0.013185937 0.0008035314
0003c0 58 1d 78 3d cf 30 aa bc a3 bc bc ba 6a 63 98 3c
       0.06057486 -0.020775227 -0.001439948 0.018602092
0003d0 2b ed ea 3c de bf 71 3d bc 60 b4 bc c0 90 59 bd
       0.028677544 0.05902087 -0.022018783 -0.05311656
0003e0 82 98 47 3d 89 d3 48 3d 43 d8 cb 3c 62 f9 fd 3c
       0.048729427 0.04902986 0.024883395 0.031002704
0003f0 d0 c0 ad bb b9 4c 11 bc 4e 6d 52 bd 50 ae 99 bc
       -0.005302526 -0.00886839 -0.051373772 -0.018759876

conv2.0.bias f4 [32]
000000 2f eb 8e bd d0 72 8e bd 3c b3 94 3c bd c9 92 bc
       -0.069784515 -0.069554925 0.018151872 -0.017918462
000010 6c c3 11 bd 7b bc fa 3d f0 64 20 3c ac 00 1d bc
       -0.03558676 0.12242981 0.00978969 -0.00958268
000020 67 79 87 3d 0b 47 34 3d f8 f8 83 bd e1 fe 59 bd
       0.066149525 0.044013064 -0.064439714 -0.053221587
000030 10 38 69 3d 6b 99 6c 3d 06 99 96 3d 80 5b ed bb
       0.05693823 0.0577635 0.07353406 -0.0072435737
000040 39 3e 80 3c 9a 41 17 bb 01 80 c2 3c 50 bb 06 3d
       0.01565467 -0.0023079873 0.023742678 0.03289348
000050 24 32 5f 3d 0f cb de 3c 84 e5 0e bc 92 56 91 bd
       0.054491177 0.027196435 -0.008721713 -0.0709659
000060 fd ab 05 3d d0 88 88 3c f2 2a 90 3c 94 f0 ea bc
       0.032634724 0.0166668 0.017598603 -0.02867917
000070 2c a4 97 3d 5c 41 d4 3b 4a 10 1d bc 83 74 0a 3c
       0.0740436 0.006477518 -0.009586403 0.00845063

conv2.2.weight f4 [32, 32, 1, 9]
000000 ba 4d 19 bd 9e 87 67 bc e4 7d 55 bd 95 20 0c 3d
       -0.03742764 -0.014131455 -0.05212201 0.03421076
000010 1c 16 72 bd 0a 90 81 3c 3c d6 df 3b 09 15 81 bd
       -0.059103116 0.015815753 0.0068309586 -0.0630284
000020 7c 94 9f bd 3a 8b b4 3d 8a 1b 62 bc f1 30 a3 3a
       -0.07791993 0.08815618 -0.013800511 0.0012450499
000030 8d e1 00 bd 6d bf 34 bd ee 2b 55 3d 25 05 51 3c
       -0.031465102 -0.04412787 0.052043848 0.012757574
000040 0d da bc bc 7f 46 3a bd 59 80 16 3d d8 44 c6 bc
       -0.023053193 -0.045477387 0.036743496 -0.02420275
000050 64 48 97 3d a5 37 ac bc 6b 76 50 3d f7 f0 64 3c
       0.07386854 -0.021022627 0.050894182 0.013973466
000060 82 bf 9d 3d d5 75 d5 3b 21 39 12 bd c2 22 07 3d
       0.07702543 0.006514291 -0.035699014 0.032992132
000070 99 e8 88 bc 48 02 78 3c da 05 ea 3c b6 c3 0c bd
       -0.016712474 0.015137263 0.028567243 -0.034366332
000080 dd ab 04 3d d2 76 d1 3c 5d 04 36 b9 a1 0e 6e bc
       0.032390464 0.025569353 -0.00017358498 -0.014529855
000090 10 15 00 bd fa 55 3f 3d 3c b5 60 3d a3 e0 7d 3c
       -0.031270087 0.046712853 0.05486034 0.015495452
0000a0 63 6f 32 3c f9 82 01 3d 0f f3 16 3d 12 60 47 3d
       0.0108908145 0.031619046 0.036852892 0.048675604
0000b0 94 85 4b 3d de 74 a4 be 8b 55 a8 be 6c a4 88 be
       0.049687937 -0.32120413 -0.32877764 -0.26687944
0000c0 79 2f ba be 8d b3 91 be c6 c1 90 be 07 c4 a4 be
       -0.36364344 -0.284573 -0.28272837 -0.32180807
0000d0 6e 01 9f be e0 ce a1 be b7 e6 8a 3c 31 6e 91 3d
       -0.31055778 -0.31603146 0.016955717 0.071010955
0000e0 dd 87 6d 3d 9f 95 a8 bb 27 fd de bc b1 8f 30 3d
       0.057990897 -0.0051447893 -0.027220322 0.043105785
0000f0 75 a3 15 3d fa d6 63 3d 23 cc 25 3d d9 89 a1 bd
       0.036532838 0.05562494 0.040477883 -0.078876205
000100 8c 9f bb 3c f0 28 6a 3b 40 f5 36 3d d5 26 55 bd
       0.022903226 0.0035729967 0.044667482 -0.052038986
000110 57 21 22 3c 5e 10 a9 bc 84 48 82 3d bd cd e9 bc
       0.009895644 -0.020637687 0.063614875 -0.028540486
000120 85 cf 6a 3d bb dd 29 3d 6a d9 50 bc 08 11 1b bb
       0.057326812 0.041471224 -0.012747148 -0.0023661274
000130 d8 f4 06 bd 85 cd 1a 3d 8e 34 5d bd aa 35 2e bd
       -0.032948345 0.037793655 -0.0540052 -0.042531647
000140 ad d3 1e bd 2c fe 65 3d 01 59 05 3d 5c 6a 0a bb
       -0.03877609 0.0561506 0.032555584 -0.0021120524
000150 80 88 77 bd d4 88 65 3d 82 5b 59 bd bb d0 be ba
       -0.06043291 0.056038693 -0.053065784 -0.0014558056
000160 ab 1f d5 3c 3c d7 94 bc bb 64 3d bd 3c ff 32 3d
       0.026016077 -0.018169038 -0.046238642 0.04370044
000170 02 f5 52 3d d0 65 e0 bc 44 b5 51 3d bc 94 86 bb
       0.05150319 -0.027392298 0.05119826 -0.004107086
000180 05 51 bb bc 4a 7f 87 3c 37 10 31 3d af e6 4b 3d
       -0.022865782 0.016540188 0.043228354 0.049780544
000190 7c 0c 64 bc 85 27 9e 3c 65 2b 41 3d fd 61 89 3d
       -0.013918992 0.019305954 0.047160525 0.06708143
0001a0 54 75 24 bd d5 37 91 bc 0b 1f 28 bc 27 62 f8 3c
       -0.040150955 -0.017726818 -0.0102613075 0.03032024
0001b0 8c 73 2c 3c 85 53 9d 3c 33 69 cb bc 6f c3 00 bd
       0.010525595 0.019204864 -0.024830436 -0.03143638
0001c0 e6 41 8a bd 5c f5 e5 3c d8 b1 8b bd 45 a8 98 bc
       -0.067508504 0.028071098 -0.068210304 -0.018634925
0001d0 e3 d8 39 bd 67 8f 7f bd 41 da 3b 3c cf 8a cc bd
       -0.045372855 -0.06239262 0.01146561 -0.09987413
0001e0 11 47 84 bd 9b a4 1f 3c 75 8b b7 bd ee 6e 3c bd
       -0.06458867 0.009743835 -0.08962146 -0.04600423
0001f0 d1 01 5c bd d0 48 21 bd c7 eb 04 3a 8a f8 83 bd
       -0.05371267 -0.03937608 0.0005070534 -0.064438894
000200 15 e3 f0 3c a1 96 02 bd a4 9f 48 bd 1e 45 7f bc
       0.029405156 -0.031881932 -0.04898037 -0.015580444
000210 64 b0 5c bd fd 97 0d bd e7 a0 5f bd f6 c1 0f 3c
       -0.053879157 -0.034568775 -0.054596808 0.008774271
000220 fc ce 4f bd 09 86 35 3d 75 63 7a ba 73 62 53 bb
       -0.050734505 0.04431728 -0.00095515634 -0.0032254725
000230 81 71 8e 3c c2 2b 38 bc c8 9e 7f 3c 6a 79 6b bd
       0.017388107 -0.011240901 0.015601821 -0.057488836
000240 db 65 61 3b 83 ab 24 bd d0 3e df 3b 22 22 4d 3d
       0.0034392986 -0.04020263 0.0068129078 0.05008138
000250 d9 4c 61 bc 16 45 4b 3d 2d 16 c9 bb f9 c0 43 bd
       -0.013751232 0.049626432 -0.0061366768 -0.047791455
000260 5c c6 8f bc f4 31 32 3d 9e 71 44 3d 01 d6 06 bc
       -0.01755064 0.04350467 0.047959916 -0.008229733
000270 d9 76 5e 3c ab 2c 00 3d 29 40 5b bd e3 88 ac bc
       0.01357814 0.0312926 -0.053527985 -0.021061366
000280 f6 e6 3f bd 2a e9 4e bd cc b7 5d 3d 90 d5 22 3d
       -0.04685112 -0.05051533 0.05413036 0.03975445
000290 88 ed 96 3c 1f 21 10 3d 85 e5 ef ba d7 c9 6c bc
       0.01842381 0.035187837 -0.0018302655 -0.014452419
0002a0 44 d5 67 3d dc 59 06 bd e3 83 1b bd c1 6c e6 bc
       0.05659987 -0.03280054 -0.037967574 -0.02812803
0002b0 78 2d 23 3c 77 77 da 3c 18 de 5d 3d 06 9c 56 bd
       0.009959571 0.026668293 0.054166883 -0.05239489
0002c0 eb 51 46 3c b2 a1 b0 bc d6 e2 94 3c ae da 39 3d
       0.012104492 -0.021561477 0.01817457 0.045374565
0002d0 68 30 ce bc 79 46 d0 bc 14 f7 0d bd a5 12 d8 3c
       -0.025169566 -0.025424229 -0.03465946 0.026376078
0002e0 2d 7c 3a bd 7a 94 4f bc 25 e9 82 bd 79 01 52 3c
       -0.04552858 -0.012669677 -0.06392125 0.012817734
0002f0 d6 40 dd bc fe 9d 70 3c f7 f2 73 bc b4 1a 01 3d
       -0.027008455 0.014686106 -0.01488947 0.031519607
000300 92 7c 9a 3c 7e ba 02 bd 54 fd 54 3c c4 fa 40 3d
       0.018858228 -0.031916134 0.012999851 0.04711415
000310 48 dc ac 3c 20 35 57 3c 77 a9 47 3d 0d 84 22 3d
       0.021101132 0.013135225 0.0487456 0.039676715
000320 5a da 2a 3d ea fe 1e 3d 93 4e a8 bc 15 34 31 bd
       0.041712143 0.038817324 -0.02054528 -0.04326256
000330 1c c1 e8 3a 3a 33 67 3d 5f e5 39 bd e1 87 0e 3d
       0.0017757746 0.056445338 -0.04538476 0.034797553
000340 8f f6 21 bd 98 4b 38 bd 44 60 2a 3a 1b 28 22 3c
       -0.039541777 -0.044993967 0.000649933 0.009897257
000350 dd 72 75 3d c7 74 0f 3c c5 2a 77 bb 86 dd 2d 3d
       0.059923995 0.008755869 -0.0037714702 0.04244759
000360 de d4 6c 3c 3b 75 26 bd 01 fa 31 bd c5 2e f0 3c
       0.014455048 -0.040639143 -0.043451313 0.029319176
000370 d7 02 2b bc 12 c6 1b bd 5f ba 46 3d ee 30 7b 3d
       -0.010437689 -0.03803069 0.04851758 0.06132596
000380 00 52 c8 3c bc 8f ed 3c 8d 97 50 bd 56 66 86 bd
       0.024453163 0.028999202 -0.05092578 -0.06562488
000390 55 76 54 bc 7f 20 75 bd 72 2c 17 bd 7a 54 bf bc
       -0.012967666 -0.059845444 -0.03690762 -0.023355711
0003a0 7a ed 76 bc 45 6c ec bc e1 03 5d b8 33 fb 89 bc
       -0.015071267 -0.02886022 -5.269412e-05 -0.016843414
0003b0 24 5f 59 3d 90 6d b0 3b 2e 98 a0 3c ed e0 d6 bc
       0.05306925 0.0053841546 0.019603815 -0.0262303
0003c0 7d ba 60 bc e5 1b ff 3b 0d 75 51 3d 6e ab b2 bb
       -0.013716337 0.0077853077 0.05113702 -0.005452565
0003d0 7c 85 36 3a 4b ca 0e 3d 58 22 02 bd 42 6d 9f bb
       0.000696264 0.03486089 -0.031771034 -0.0048653195
0003e0 27 f7 80 bd ea fd b1 bc 29 7d 59 3c 42 d6 be bc
       -0.062971406 -0.021727521 0.013274469 -0.023295525
0003f0 05 29 03 3d b9 11 14 3d ef 9d 86 bc 1c 91 35 3d
       0.03202154 0.036149714 -0.01643273 0.04432784

conv2.2.bias f4 [32]
000000 00 26 ac 3c 18 1b c9 3c 0a 3c 3b 3d d6 27 a1 3c
       0.021014214 0.024549052 0.045711555 0.019672316
000010 e5 f7 83 bc 7e 05 2a 3d 70 c9 17 bd 90 75 36 3c
       -0.016109416 0.041509144 -0.03705734 0.0111364275
000020 c3 da 65 3c fe 0a 2f bd 5d 01 08 bd 95 e9 40 bd
       0.014029208 -0.042735092 -0.033204425 -0.04709776
000030 d8 d5 42 3c e5 fc 91 bc 03 55 1b bc d3 f1 2e bd
       0.011891805 -0.017820785 -0.009480718 -0.04271109
000040 a5 a6 0d bd 1b d3 39 3d cb 18 a1 3c 8c 48 29 3c
       -0.034582753 0.04536734 0.019665143 0.010332238
000050 06 4b 06 3d 3b 0b f4 3b b5 38 8d bc 6a 5a 6d 3d
       0.03278639 0.007447628 -0.017238954 0.057947554
000060 80 4a 51 bd 45 35 82 bc 16 4b 52 3d a4 75 63 3d
       -0.05109644 -0.015894542 0.05134114 0.055532113
000070 c2 31 0a bd a2 77 d7 3c 60 2d 3b 3d 17 03 e0 3c
       -0.03373886 0.026302163 0.04569757 0.027345223

conv2.3.weight f4 [32]
000000 49 25 87 3f 81 56 7a 3f a1 13 7f 3f 5a 7b 7f 3f
       1.0558254 0.97788244 0.99639326 0.99797595
000010 26 cb 82 3f ee a9 85 3f 0a aa 7e 3f 3c cf 7b 3f
       1.0218246 1.0442483 0.9947821 0.9836309
000020 5d d7 81 3f 87 25 7b 3f 42 cf 7d 3f ed a8 78 3f
       1.0143849 0.9810414 0.99144375 0.9713276
000030 30 6f 81 3f 2d 7b 78 3f 09 54 77 3f d9 71 82 3f
       1.0112057 0.9706295 0.966126 1.0190994
000040 9b 3e 7c 3f 8d 89 7a 3f 11 76 6f 3f bd 69 7f 3f
       0.9853303 0.97866136 0.9353953 0.9977072
000050 ca ab 7e 3f 71 1c 77 3f 13 f6 82 3f 71 8e 81 3f
       0.9948088 0.96527773 1.0231346 1.0121595
000060 eb 31 84 3f 3a 12 83 3f 4d 09 86 3f 61 56 81 3f
       1.0327734 1.0239937 1.0471588 1.0104486
000070 86 84 7f 3f ad 0f 85 3f 2a da 80 3f 33 81 80 3f
       0.9981159 1.0395409 1.0066578 1.0039428

conv2.3.bias f4 [32]
000000 0d 61 39 3c 91 9d 0c bc e1 d6 05 bc 11 57 0c 3d
       0.011314643 -0.008582489 -0.008168907 0.03426272
000010 2f ee bc bc e9 1a fb 3c 8e 50 49 3c b7 c7 92 bc
       -0.023062794 0.03065248 0.012287272 -0.017917497
000020 c9 a7 19 bd ed da 05 bd 26 cb 8b 3c c2 61 7c 3c
       -0.037513528 -0.032679487 0.017064642 0.015404167
000030 db 6b 01 3d 18 b6 ac 3c 16 86 19 bc 0d 11 34 3d
       0.031597 0.021082923 -0.0093703475 0.043961573
000040 37 ae a1 bc 6d 19 fd bc 1d dc c4 bd 19 59 63 bd
       -0.019736392 -0.030895913 -0.09612296 -0.055504892
000050 ed 84 e1 3c 48 79 ab bd 24 c5 cb bc 99 16 3d bd
       0.027529204 -0.08372742 -0.024874277 -0.04616413
000060 e7 a3 09 3d ae 5c ae bc b4 7b d9 3c 6e 13 40 3c
       0.033603575 -0.021284427 0.026548244 0.011723382
000070 d2 7c a9 3c 23 0a e7 bb e8 a0 92 bc 58 44 94 bc
       0.020689402 -0.007050769 -0.017898992 -0.018098995

conv2.3.running_mean f4 [32]
000000 95 af 5a c0 22 6f 9d c0 f4 d6 1c c1 53 41 0d c1
       -3.4169667 -4.919816 -9.802479 -8.828448
000010 6a 4c 6f 40 ae 76 f4 c0 36 29 7b bf 62 63 c6 bf
       3.739039 -7.6394873 -0.9810976 -1.5499079
000020 f1 0b 05 41 3e 8a 8c c0 76 75 fd c0 09 bb c3 40
       8.315415 -4.3918753 -7.9205885 6.1165814
000030 0c b6 58 bd fc ad f1 c0 34 35 b7 3f 07 30 e3 c0
       -0.05290799 -7.5524883 1.4313111 -7.0996127
000040 92 a7 23 c1 6c 42 4e c0 08 98 fd c0 a3 57 95 40
       -10.228411 -3.222804 -7.9248085 4.666948
000050 1a ca 9c 40 e8 d7 96 40 cd 5c 8d 40 3f e1 91 40
       4.8996706 4.7138557 4.417578 4.558746
000060 2d 9b c6 c0 00 b2 8f 40 5c 17 82 c0 d6 bc bf c0
       -6.2064424 4.4904785 -4.0653515 -5.9918013
000070 26 b0 ee c0 ff 11 04 40 4c cb 18 c1 b6 f5 a8 c0
       -7.4590025 2.0635984 -9.549633 -5.279994

conv2.3.running_var f4 [32]
000000 07 70 93 40 63 26 3e 41 f7 4c 16 42 b6 17 21 42
       4.607425 11.884372 37.57516 40.273155
000010 9f 52 2e 41 75 a9 c1 41 6d 65 43 41 17 2c dc 40
       10.895171 24.207743 12.212262 6.880382
000020 80 0f c5 41 79 79 11 41 1b 29 d6 41 4f 5c 70 41
       24.632568 9.092156 26.770071 15.022536
000030 72 16 db 41 19 96 fb 41 a0 2a 27 41 f9 3d aa 41
       27.38596 31.44829 10.4479065 21.28026
000040 4e 6a 14 42 55 24 b5 40 a3 c4 bf 41 b7 ba 2d 41
       37.103813 5.660685 23.971014 10.858085
000050 b0 09 8d 41 6c e2 7e 41 2e 50 8a 41 39 62 67 41
       17.62973 15.930279 17.28915 14.46148
000060 43 d3 84 41 66 99 96 41 56 2a 23 41 4e b8 6d 41
       16.603155 18.824902 10.197836 14.857496
000070 e2 be c1 41 6a eb 09 41 d9 93 07 42 b9 74 97 41
       24.218204 8.619974 33.894382 18.931993

conv3.0.weight f4 [32, 32, 9, 1]
000000 ff c2 33 bd e5 e7 65 3d 52 77 19 bd d6 15 65 3d
       -0.043887135 0.056129355 -0.03746731 0.055929027
000010 ae 38 28 bd 7b 33 8b 3b ae 72 fb bb 33 c9 a8 bc
       -0.04106968 0.0042480803 -0.007673583 -0.020603752
000020 f9 15 d2 bc b3 c4 b2 3c 80 4d 86 3d 42 d2 0c bd
       -0.025645243 0.02182231 0.06557751 -0.034380205
000030 ae bb 5e 3c 42 29 9d 3c 64 f4 4d bd b5 eb 57 bc
       0.013594551 0.019184712 -0.050281897 -0.0131787555
000040 20 f0 22 bc 26 f6 cb bc 2c c3 37 3d e8 6d 14 3c
       -0.009944946 -0.024897646 0.044863865 0.009059407
000050 83 36 99 3b 8a 9e 34 bd a5 6f 6a bd 3d 6c 20 bd
       0.0046756878 -0.044096507 -0.05723538 -0.039165724
000060 2c c7 57 3c e7 61 87 3c 3d 3d 1a bd 2f 0b a2 3c
       0.013170045 0.016526176 -0.037656058 0.019780723
000070 02 18 f2 bc 4d e3 e1 3c d2 86 3f 3b 14 d4 91 bd
       -0.029552463 0.027574206 0.0029224646 -0.07120529
000080 9d 76 62 3c 97 9b 06 bd 1a 8c 08 3d d8 84 29 3d
       0.013822225 -0.032863226 0.033336736 0.041386455
000090 13 b7 72 3b fc 21 c4 3c 36 b7 5f bd cf ec 7b bc
       0.003703539 0.023941986 -0.054618083 -0.015376284
0000a0 18 33 02 bc 68 79 4a 3c 0e 65 21 bd e0 72 f3 bc
       -0.007946752 0.012358047 -0.039403014 -0.029717863
0000b0 8e 69 b6 3c 51 8d 81 3c 7c c1 11 3d 19 69 12 3b
       0.02226713 0.015814455 0.03558491 0.0022340475
0000c0 9e 13 5f bd 76 8c ca bc c3 37 2d bc 8d d6 3e 3d
       -0.054462068 -0.02472518 -0.010572377 0.04659133
0000d0 09 18 23 3d 36 dd ff 3c 66 55 62 3d f5 ac e2 bc
       0.039817844 0.031233411 0.055257224 -0.027670363
0000e0 70 1c 22 bd bc 9c 70 3c 95 9a f1 bb 2c 7d 57 bd
       -0.0395779 0.014685806 -0.007373164 -0.052609608
0000f0 6f 58 4a bd bb bd d7 3b 2b d1 73 bc 9b a7 56 3d
       -0.049400743 0.006583897 -0.0148814125 0.052405935
000100 5b 32 18 bd c2 0c 86 bd 37 95 12 3c e6 9e 80 bd
       -0.037157398 -0.06545402 0.008946708 -0.062803075
000110 36 9e e7 3c 44 fb 00 3c 5c 96 cb 3c 45 7c 3d 3c
       0.028273683 0.007872406 0.02485197 0.011565273
000120 3d 5d 4a bd 7a ca 13 3d ef e9 0a bd 54 64 36 3d
       -0.049405325 0.03608177 -0.033914503 0.044529274
000130 d0 74 a1 bb a8 db 83 bc f7 f2 5a 3c f2 7a 38 3d
       -0.004927255 -0.016095951 0.013363591 0.045039125
000140 9c bf 48 bd cb 0e d1 bc 5d 70 28 bd ce 26 05 3d
       -0.049010858 -0.02551975 -0.041122783 0.03250771
000150 32 5e 76 bd 8a 41 54 bb e3 b4 d9 3c 8e ca 1d 3d
       -0.060148425 -0.0032387697 0.026575511 0.03852325
000160 27 66 18 bb 76 0b 26 bd 9d de a4 bc 7c f9 5e bd
       -0.0023254247 -0.040538274 -0.020125682 -0.054437146
000170 90 f5 4c 3c 32 2f 52 bd 65 81 aa 3c f7 6c 80 bc
       0.012509719 -0.05131454 0.020813653 -0.015676958
000180 c2 30 16 bd 17 8b 7f bc 40 31 2e 3c 1e 0b 11 bc
       -0.036667593 -0.015597126 0.010631859 -0.008852748
000190 61 61 20 3d b8 db 4b bd 15 55 7d bc 85 16 89 3b
       0.039155368 -0.049770087 -0.01546218 0.0041835927
0001a0 50 36 7b bd 5e be 24 bd 88 59 ef 3b b3 0b d9 bc
       -0.061331093 -0.04022061 0.007304374 -0.026494836
0001b0 13 a4 0b 3d ad 0e 88 3a 30 b3 da bc d7 01 db 3c
       0.03409202 0.001038035 -0.026696771 0.026734276
0001c0 6a c3 3c bd a7 e7 8f bd 67 8b b9 3c 50 b7 8e bd
       -0.0460848 -0.07026606 0.02264948 -0.06968558
0001d0 c8 29 c8 bb 99 be da 3c 31 1b dc bc b0 9c 60 3c
       -0.0061084963 0.026702212 -0.026868435 0.013709232
0001e0 9c 4d 51 ba 26 c4 5b bd ec 1f 89 bc 17 48 8b bd
       -0.0007984282 -0.05365386 -0.016738854 -0.068008594
0001f0 c7 a4 14 3d c9 78 f1 3c 9e 11 0d bd 08 42 35 bc
       0.036289956 0.02947654 -0.03444063 -0.011063106
000200 ec d8 5e bc c4 4c 30 3b 65 44 a1 bc 53 bf bf bc
       -0.013601523 0.0026901225 -0.019685933 -0.02340666
000210 c8 37 7d 3d b9 f0 d0 3b e7 83 c8 bc 64 6f cd 3c
       0.061820775 0.0063763526 -0.024476958 0.02507753
000220 f0 66 02 bd 67 a9 fe bc c2 5e bb bc 03 2e d7 bb
       -0.03183645 -0.031086637 -0.022872332 -0.0065667643
000230 46 37 02 bc cd 7f 19 3c 92 ff 7b bc 6e a3 47 bd
       -0.0079477485 0.009368849 -0.015380757 -0.048739843
000240 a3 c8 49 bd 90 83 b9 3c 40 40 4d bd bd cb ca bb
       -0.049263608 0.022645742 -0.0501101 -0.0061888383
000250 42 c7 ad 3c e8 4e d7 3b 76 d8 44 bd 90 33 1d bd
       0.021213178 0.0065706857 -0.048057996 -0.038379252
000260 2b 2f 2f bd c9 96 19 bd 10 1b 4b bd 5f 4c 13 bd
       -0.042769592 -0.037497316 -0.049586356 -0.035961505
000270 a1 a3 3e bc 7b 81 f5 bb f3 4f 8f 3c 18 cb 05 bd
       -0.011635692 -0.007492242 0.017494177 -0.03266439
000280 27 54 c8 ba da 0f de 3c b1 18 2e 3d 3f 98 2e bd
       -0.0015283868 0.027107168 0.042504016 -0.042625662
000290 bc d0 b0 3c c7 a2 e2 3c 02 3d 4b 3c 68 5d 5d bc
       0.021583907 0.027665509 0.012404682 -0.013511039
0002a0 88 5e e6 3c 9c bc 9f 3c 37 37 27 bd 81 3a a5 bc
       0.028121248 0.019499116 -0.04082414 -0.020169498
0002b0 53 4b 7b 3d d0 23 e0 bc 44 62 59 3a 64 df 7a bd
       0.06135113 -0.027360827 0.0008292536 -0.0612482
0002c0 a6 55 92 bc 3e d5 9e bc e1 cd 2f bd 80 a3 c0 bc
       -0.017863106 -0.019388791 -0.04292095 -0.023515463
0002d0 dd c3 d7 b9 30 6b 0f bd fb f5 a3 bc 50 95 af bc
       -0.00041153925 -0.03501433 -0.020014754 -0.021433502
0002e0 0c b8 f9 bc 4a 46 1e 3d 1f 0d 3e 3c 32 50 73 bd
       -0.030483268 0.03864125 0.011599808 -0.059402652
0002f0 79 0b 1b bd c8 29 a6 bb e3 2d 45 3d b9 7b b2 ba
       -0.037852738 -0.0050708987 0.048139464 -0.0013617194
000300 f2 22 96 39 ab c8 13 bd 5f 7f 49 3c b2 0d ed ba
       0.00028636266 -0.036080044 0.012298434 -0.0018085747
000310 c1 85 60 3b de 75 11 bd fe 74 90 bd 68 95 0f 3d
       0.003425941 -0.035512798 -0.070535645 0.035054594
000320 b7 f1 60 bd 9e 61 02 3d de 8a 1d 3d 3f 61 0e 3d
       -0.054918017 0.031831376 0.038462512 0.03476071
000330 d8 64 ea bc db e4 3d 3c a0 b1 82 bd a8 6c 4b 3d
       -0.02861254 0.011590208 -0.063815355 0.04966417
000340 69 03 20 3d 9b fa 0b 3d 04 e5 87 bb 2f a3 87 bc
       0.039065752 0.034174543 -0.004147174 -0.016557304
000350 a5 f1 22 3d cb 28 10 3d bd 07 84 3c eb f2 51 bc
       0.03978123 0.035195153 0.016116971 -0.012814264
000360 ef 82 7f 3d 73 8f f7 bc 65 75 8c bd 6e f1 4f bd
       0.062380727 -0.03021977 -0.06858329 -0.050767355
000370 b8 26 88 3d b5 ab 23 bd 80 65 5e bd af 3b d5 bc
       0.0664801 -0.039958674 -0.054296017 -0.026029436
000380 4b e9 14 bd 04 86 77 3d 37 a6 84 bc 84 44 2f 3d
       -0.036355298 0.06043054 -0.016192539 0.04278995
000390 72 31 1a 3d fb 6d 38 bd 09 f8 6c bc d5 45 1e bd
       0.03764481 -0.04502676 -0.014463433 -0.038640816
0003a0 d3 98 c6 3c 74 63 6e 3d 3b 5b 53 bd 68 e5 a2 bc
       0.024242794 0.058200315 -0.051600676 -0.01988478
0003b0 bc 19 3c 3d 8a 87 73 bc 7c e8 36 3d c0 e3 17 bd
       0.04592298 -0.014863858 0.044655308 -0.037082434
0003c0 f3 2d 23 3d c4 26 87 3d 2e 56 6e 3c 69 58 9b 3c
       0.039838742 0.06599191 0.014546914 0.018963056
0003d0 0d b2 3b bd b8 2c ef bc ef 43 53 3c 7d 93 4b bd
       -0.0458241 -0.029196128 0.012894615 -0.049701203
0003e0 d8 01 19 bd 85 3a 09 bd 77 2c 11 bd 3a a9 1f bd
       -0.037355274 -0.033503074 -0.035442796 -0.038979746
0003f0 34 4e 11 bd bc 75 1f bd 10 41 3b bd 62 2c 80 3b
       -0.03547497 -0.03893064 -0.045716345 0.003911541

conv3.0.bias f4 [32]
000000 3e d3 d3 bc 70 02 93 bd 92 6b 1e 3d 33 f3 9d 3d
       -0.025857564 -0.07178199 0.038676806 0.07712402
000010 e6 72 43 bd 4c 6a b9 3c 19 b6 e9 3c 64 bf 0f 3c
       -0.047716998 0.022633694 0.028529214 0.008773658
000020 3e 70 b7 3a 12 da 13 3c ce 6c 25 bd 22 be 29 bc
       0.0013995243 0.00902416 -0.040386967 -0.010360273
000030 1e 76 2d bd c9 07 e7 bb 4a cf 96 bc 7a e8 83 ba
       -0.042348973 -0.0070504886 -0.01840939 -0.001006379
000040 92 4f 21 3d fe a9 df ba d9 01 92 bc be 9c 1d bd
       0.039382525 -0.0017064211 -0.017823147 -0.03847956
000050 b8 85 4a 3c 68 c7 3b bd 1c f7 a7 bc 56 95 15 3c
       0.012360983 -0.045844465 -0.020503573 0.009129843
000060 e8 74 05 3d ad 38 0a bd c8 0d 7e 3d a1 d6 4f 3c
       0.032582194 -0.033745456 0.06202486 0.012685449
000070 b4 75 44 bc c4 0f e9 3b b6 23 3d 3c b3 ae c7 3a
       -0.011990953 0.007112475 0.011544159 0.001523456

conv3.2.weight f4 [32, 32, 1, 9]
000000 a2 0a 19 ba d1 52 cd 3c ea b3 80 3d 71 fd 36 3d
       -0.0005838071 0.025063904 0.06284316 0.044675294
000010 8b 17 89 3d 7b 61 02 bd 31 7d ff bc f6 1c bd 3c
       0.066939436 -0.031831246 -0.031187626 0.023085099
000020 b2 cf b8 3c 4f 65 b5 bc fd 34 58 bc 01 f1 fa 3b
       0.022559974 -0.022143034 -0.013196227 0.0076581244
000030 9b d4 e9 3b 66 dc be 3c 31 7a 33 bd 33 50 06 3c
       0.0071359403 0.023298454 -0.043817703 0.008197832
000040 9f 63 ef bc 30 25 82 3d b1 84 a2 bb d3 dc d8 bc
       -0.029222308 0.06354749 -0.0049596657 -0.026472485
000050 49 bf c8 39 40 b7 00 3d 5e 92 6b bd 23 86 28 bd
       0.0003828949 0.03142476 -0.057512634 -0.041143548
000060 ab 77 8d bd d3 ba ab 3c 7e 6f c3 bd 3b cc 80 bd
       -0.069075905 0.020963108 -0.0954275 -0.06288954
000070 22 f6 bf 3b 6d ec d2 bc 05 f5 9d bd 51 01 9b bd
       0.0058581987 -0.025747502 -0.077127494 -0.075686105
000080 b1 5f 69 3c 4e 08 41 bd 69 26 c2 bc 2b 3b a4 3b
       0.014244006 -0.04712706 -0.023699956 0.005011936
000090 44 92 3b bd 24 e2 80 bd 05 f1 91 bd b4 88 ec 3b
       -0.045793787 -0.06293133 -0.07126049 0.0072184447
0000a0 9b d7 d3 bc 66 dc 8f bd c3 cb 11 3d 55 75 18 3c
       -0.025859645 -0.070244595 0.035594713 0.009305318
0000b0 55 28 c5 bc 2f 9c bf 3c b9 9f 90 3c 7c dc 56 3c
       -0.024067083 0.023389904 0.017654287 0.013114091
0000c0 77 52 09 3c 70 54 71 bd 04 6f 4a bd ca 39 1d 3d
       0.008381478 -0.058918417 -0.04942228 0.03838519
0000d0 07 aa da 3c 1b 84 43 3a 81 14 d4 bc 21 fb 85 bd
       0.026692403 0.0007458345 -0.025888683 -0.0654204
0000e0 dc 18 fb 3c ee 8b 42 bc a7 76 88 bd 7e b8 74 3c
       0.030651502 -0.011874182 -0.06663256 0.0149365645
0000f0 6d 0b 90 bd 3f 67 92 bd 14 e5 26 3d b4 41 43 bd
       -0.07033429 -0.07148599 0.04074581 -0.04767008
000100 e3 f1 12 bd 9d 2d ca 3c 23 03 b2 bb 1f 73 01 bd
       -0.035875212 0.024679953 -0.005432503 -0.03160393
000110 bb f0 22 3d 0d f0 74 bb 70 c5 ff 3a f0 14 4d 3b
       0.03978036 -0.0037374527 0.0019513797 0.0031292997
000120 a0 b6 3e 3c 36 46 8a bd 74 b4 ce bc a1 18 b2 bc
       0.011640221 -0.06751673 -0.025232531 -0.02174026
000130 e6 e0 03 bd 4e a8 fb 3a 00 e8 c9 bc 63 49 be 3c
       -0.0321969 0.0019199939 -0.024646759 0.023228353
000140 87 d2 bc 3a b3 56 b6 3c ac 49 45 3d 50 ea 28 bd
       0.0014406004 0.022258138 0.048165962 -0.041239083
000150 6f f9 3f 3d e4 c5 02 bd a7 7d fd 3a 64 71 3a bd
       0.046868738 -0.031927004 0.0019339815 -0.045518294
000160 ef a8 ed 3c 37 a0 4a 3d 96 ad e2 3b 3d c0 4d 3d
       0.029011218 0.0494692 0.0069176657 0.05023216
000170 d3 f4 17 bd 9a 68 0e 3c f1 9a e4 bc 28 0f b5 3c
       -0.037098717 0.008691931 -0.027905913 0.022101954
000180 f9 59 46 3c 59 b4 aa bc a5 1c 3b 3b 42 28 cc 3c
       0.012106412 -0.02083795 0.002855101 0.02492154
000190 18 77 d9 3b 11 f9 b0 bc ba 51 61 bc 8c ce c5 bb
       0.0066365115 -0.02160314 -0.013752395 -0.006036585
0001a0 de a7 d0 bc e3 a0 d0 3a fe c9 b2 bc d7 9e 1b 3c
       -0.02547067 0.0015917089 -0.021824833 0.00949832
0001b0 07 7d a6 3c b6 39 8a 3a 3e c0 38 3c 73 c1 50 3d
       0.02032329 0.0010545764 0.011276303 0.050965738
0001c0 0e d6 88 3a 92 f8 65 3c 26 7a 05 bd 10 a8 0e bd
       0.001043977 0.014036315 -0.032587193 -0.034828246
0001d0 58 b9 9a 3c e7 20 00 bd 82 68 74 bb 1a fe 16 bd
       0.018887207 -0.031281378 -0.0037293737 -0.036863424
0001e0 e2 51 04 3d 1a e2 65 bb 09 90 b0 3b f9 61 5c bd
       0.032304652 -0.0035077394 0.005388264 -0.05380437
0001f0 c1 7c 4a bd 66 97 62 bd 96 ca 5a bc 44 3b dd 3c
       -0.04943538 -0.055320166 -0.013353964 0.0270058
000200 fa 72 f3 bc c4 f4 0e 3d 92 68 2b 3d 02 d8 a5 bb
       -0.029717911 0.034901395 0.041847773 -0.0050611505
000210 79 cb 66 3c 99 60 5b 3c 49 a2 de bc 44 c1 1b bd
       0.014086598 0.01338973 -0.027176993 -0.03802611
000220 a2 ff 4c bd db 08 91 bd 91 99 0d bc cc 92 44 bd
       -0.050048478 -0.07081767 -0.00864257 -0.04799156
000230 06 ae 04 bd 60 36 8b 3c 49 dc 94 bd 99 2d 99 bb
       -0.032392524 0.016993701 -0.072685786 -0.004674625
000240 c3 c7 f3 bb fa 6b 24 bc a8 58 9d bc 68 b3 df bc
       -0.007439585 -0.010035509 -0.019207314 -0.027307227
000250 e3 e2 af bc d8 13 8a bd 52 65 04 3d 05 1c ab 3a
       -0.021470493 -0.06742066 0.03232319 0.0013054615
000260 d3 c3 43 bd eb 23 bc 3c e5 8e 08 3d 5a 4d f3 bc
       -0.047794174 0.022966346 0.0333394 -0.02969997
000270 2a 42 9f 3c ac 8a 93 bc c3 68 6b 3c f5 a3 2e 3d
       0.01944073 -0.01801046 0.014368239 0.04263683
000280 6a e7 57 bd 08 e0 b5 3b 3a 29 93 bc 15 47 0b bd
       -0.052710928 0.0055503882 -0.017963994 -0.034003336
000290 85 d7 3d 3c c7 81 9a bc b7 9c 2e 3c d4 99 d9 3c
       0.011587028 -0.01886071 0.010657481 0.026562609
0002a0 87 18 9a bd 62 4a 87 3c 67 3c 49 bd 1d 56 17 3d
       -0.075242095 0.01651496 -0.04912987 0.03694736
0002b0 9a d0 da bc 3a 26 3b 3b c3 c9 9e 3b 2e 19 8d 3b
       -0.026710797 0.002855672 0.004845829 0.00430598
0002c0 c6 94 76 3d f9 77 99 bb f4 a7 20 bd 5a 24 18 bb
       0.060200475 -0.0046834913 -0.039222673 -0.0023215027
0002d0 2c 06 aa bd 9d 5e a0 bc ff c5 56 bd 24 f0 e6 3b
       -0.083019584 -0.019576365 -0.052434918 0.00704767
0002e0 35 41 9e bc f9 d4 a4 3c 7e 49 81 bd ec 45 8a bb
       -0.019318203 0.020121085 -0.06312846 -0.004219761
0002f0 ad 77 a8 3b c0 a2 f1 bc 8a 77 ee 3c 3e 59 b5 3c
       0.0051412196 -0.02949655 0.029109735 0.02213728
000300 58 04 c0 3c b8 10 33 bd 54 7b 48 3d 2f d3 8e bc
       0.023439571 -0.043717116 0.04894574 -0.017434685
000310 20 a8 f6 3c af 3e bc 3d 8d 4a 61 3d e0 0c 13 3d
       0.030109465 0.091916434 0.055002738 0.03590095
000320 61 30 2f 3c 36 4c a2 bb 7b 29 be 3c 0a e1 6f 3c
       0.010692687 -0.0049529327 0.023213139 0.014641056
000330 05 c6 5d 3d b8 46 20 3d 29 48 00 bb 39 2b 1f bc
       0.054143924 0.039129943 -0.001957426 -0.009714895
000340 ba 56 19 bd 55 a0 46 bb c5 67 6f 3d 70 d2 ea bb
       -0.037436225 -0.0030307968 0.05844857 -0.0071661994
000350 96 51 69 bc 34 af 86 bc c0 61 bb 3c f1 dd ea bc
       -0.014240643 -0.016440965 0.02287376 -0.028670283
000360 94 ea 09 be e0 d3 0d be 54 ff cb bd a1 f8 87 bd
       -0.1346839 -0.13850355 -0.09960809 -0.06639219
000370 b1 b2 c1 bc d9 f2 c2 bd 04 c5 ac bd 94 fd d8 bd
       -0.023644777 -0.09518976 -0.08436015 -0.10595241
000380 e0 54 83 3a 9b bd 58 bd 82 97 8b bd e0 e6 65 bc
       0.0010019802 -0.052915197 -0.06816007 -0.014032096
000390 1b 90 ee bc 6f 0a ad 3c ea e2 05 bb 47 cc 88 bd
       -0.02912145 0.02112314 -0.002042944 -0.06679588
0003a0 3c 3b a7 3c e6 a2 58 bd 10 5e 92 3c ac 44 18 3c
       0.020413987 -0.052889727 0.017867118 0.009293716
0003b0 c9 7b 77 bd c6 c8 2e bd 21 f1 0d bd a1 87 4b bd
       -0.060420785 -0.04267194 -0.034653787 -0.049689893
0003c0 2e 37 85 bd cb f5 c9 bc 75 b3 ba 3c e9 c9 db bc
       -0.06504665 -0.024653336 0.02279065 -0.026829677
0003d0 50 38 f5 bc d2 59 22 bc a9 61 bb 3c e6 aa 6a bd
       -0.029934078 -0.00990911 0.022873716 -0.057291888
0003e0 47 45 66 bd aa 7b 06 bd b8 6a b9 bc 38 ab b2 3b
       -0.05621841 -0.03283278 -0.022633895 0.00545254
0003f0 08 b9 1d bd a4 c2 8a bd 8e c3 57 3b eb 0f 00 3d
       -0.038506538 -0.06775406 0.0032922956 0.03126518

conv3.2.bias f4 [32]
000000 ad 38 8e 3c 9f 47 48 3d f6 78 19 3d eb 8a 0d bc
       0.01736101 0.04889643 0.037468873 -0.008639078
000010 8b 72 25 bd 07 bb 43 bc 39 ac 0e 3d 37 7d 58 3d
       -0.04039244 -0.011946446 0.034832213 0.05285379
000020 67 df 34 3d c2 e6 04 bd fb 9c 32 3d 6f 26 97 3c
       0.044158366 -0.03244663 0.04360674 0.018450944
000030 cd 39 37 3c 0c 87 e5 bc 16 d3 4a 3d 9b 45 06 bd
       0.011183214 -0.028018497 0.049517713 -0.032781225
000040 64 bc ae bc be dc 32 bd 52 28 61 3d a7 7b 18 bd
       -0.021330066 -0.043667547 0.054970093 -0.0372273
000050 80 4a 6f 3d 66 a7 1e bd e7 e7 19 bd 91 d4 92 bc
       0.058420658 -0.038733862 -0.037574675 -0.017923625
000060 6c 46 ec bb a6 16 a5 bc 7e 93 0e bd 09 5a 3f 3b
       -0.0072105434 -0.020152401 -0.03480863 0.0029197952
000070 f2 05 3f 3c 5a e4 ca 3b e2 f3 43 3d 55 2e ff 3c
       0.011659132 0.0061917724 0.047840007 0.031150023

conv3.3.weight f4 [32]
000000 21 c6 78 3f c3 91 81 3f 6a ff 7d 3f 64 89 80 3f
       0.9717732 1.0122608 0.99217856 1.0041928
000010 e0 29 74 3f 3d 67 7e 3f ee e9 75 3f fd 2e 80 3f
       0.95376396 0.9937628 0.96060073 1.001434
000020 1f 2b 7c 3f 4f 05 83 3f e7 41 83 3f 55 20 7e 3f
       0.985033 1.0235995 1.0254487 0.99268085
000030 3a bb 7e 3f ec 10 80 3f 02 71 80 3f 81 e2 80 3f
       0.99504435 1.0005164 1.0034487 1.0069124
000040 b5 1e 82 3f e9 c4 76 3f a3 f8 81 3f 26 f7 80 3f
       1.0165621 0.9639421 1.0154003 1.0075424
000050 da 75 75 3f b6 cf 83 3f 66 e3 7c 3f e7 8d 80 3f
       0.9588295 1.0297763 0.9878448 1.0043305
000060 9b e2 7e 3f 22 f3 81 3f 9f e1 7e 3f 83 46 78 3f
       0.9956452 1.0152323 0.9956302 0.9698259
000070 5e 3d 7b 3f 8f c6 81 3f 7f d4 7a 3f b3 06 84 3f
       0.98140514 1.013872 0.97980493 1.0314544

conv3.3.bias f4 [32]
000000 c8 52 92 bd 9f ce 1d bd f2 0a a3 bc 47 17 e7 3b
       -0.071446955 -0.038527127 -0.01990268 0.0070523354
000010 2b 8d 7b 3a 12 c5 9c 3c 0c d7 ec bc 78 8b bb 3b
       0.0009595926 0.01913694 -0.028911136 0.005723413
000020 63 fb 00 bc 68 e7 47 bd de 9a 1b ba eb f6 b4 3c
       -0.007872435 -0.04880467 -0.0005935858 0.022090396
000030 fd 51 9a bc b7 0d 8b bb 72 5a 6b bd c4 a0 3e 3c
       -0.018837923 -0.0042435783 -0.057459302 0.011635009
000040 02 99 51 3b 2a b7 e4 bc ac 23 9d bd ec 3a a3 bc
       0.003198207 -0.02791937 -0.076728195 -0.019925557
000050 f2 8d dc 3b c5 dc 1b bd 78 d2 18 bc 87 da 80 bc
       0.0067307884 -0.03805234 -0.009327523 -0.015729202
000060 0f 46 e7 ba 89 de 7c bc bc f9 10 bd 4d 1f 1c 3c
       -0.001764478 -0.015433916 -0.035394415 0.009528947
000070 ec e0 4f bc b6 d3 82 bd b8 44 b8 bc 6c 90 8b 3c
       -0.012687903 -0.06388037 -0.022493705 0.01703664
