models/student/S2_net_fc.pt (torch, 20736 bytes, 8 tensors)

fc.0.weight f4 [32, 128]
00000000: 377e 0abb ec66 d6ba a7aa c43d 64f6 0ebd
00000010: 44a2 bb3d c6d4 8b3d 425d 013e 30d9 023d
00000020: 69ba b5bc 41a5 7abc 5aea 433d 90ea fcbc
00000030: 8965 833c b38d 2dbd 8876 bb3d b85a 6fbc
00000040: 4c11 a93d 54f0 603d 41db 033d e95b 9ebb
00000050: cc83 903d a181 223d afe1 73bc d74d 163d
00000060: dfaa 843d c98d 4fbd 6c03 36ba b434 143d
00000070: 749d 5b3d bfe3 623d 1a38 ab3d 4f37 d93b
00000080: 7264 8c3d 282e 59bd 7402 673d 7e2a 883d
00000090: 3416 3a3d b7c9 6f3d c474 48bd b896 c53d
000000a0: d50d e83d 3d05 b8bd 7513 80bd 3f0a db3d
000000b0: 06ee 5b3d 1aa0 78bd a405 513d 208d 993d
000000c0: 3766 323d cf9a 553d a115 20bd 5fb2 0fbd
000000d0: 101b fbbb aba8 8f3d 0702 463d 4816 b9bb
000000e0: 36c6 e03d 5293 91bd df6a 0bbd 30d5 713d
000000f0: ab0f 4cbd fdc5 bdbc a3ef 04bc 4c57 d63c
00000100: 055b 21bd d249 7d3d 2400 b83d 8f54 203c
00000110: a11b eebc 8b71 833d 7f17 64bd 85ec 9c3d
00000120: 8749 153d 65fb d5bc 8611 5cbd 4e68 a6bc
00000130: dcda 86bd a36d 3d3d 8793 de3d 762c 4abd
00000140: a8e6 34bd 1b2c 5c3c ff1a 34bc 96e8 493d
00000150: 0b8a 3fbd 2baa 303d 8a6c 1d3d a848 69bd
00000160: 636b 153d 73fc 75bc 360d a13d 82f8 d23d
00000170: efc3 16bc 920b c3bd e289 88bd ccf7 103d
00000180: b88d 3dba edec 9cbc e414 6ebd 2174 3dbd
00000190: eb38 923b 63a6 a9bc 8367 1e3c 0a86 f13c
000001a0: 20c0 9bbd 5244 b9bd 0fe2 503d 80f3 8ebb
000001b0: 541d 343d ea16 1fbd 9f27 78bd 8aac 833d
000001c0: d1ca e93c c095 0c3d c446 1fbd ec07 69bd
000001d0: b2ab 0bbd 7ce5 813a 6e27 cdbc c402 68bc
000001e0: 8725 e2bc 7bfd df3b a96f b93c da35 3a3d
000001f0: aa6b 2d3c 87aa 83bd 3529 1abc c484 823d
00000200: 7d9e 7fbd 43be d9bb 9bce f7bc 5da9 a93d
00000210: 46ec 5ebd bd37 45bc eb79 8bbd eff6 613d
00000220: b7ec 9dbd 8d28 713d 9e69 8cbd df86 f03c
00000230: 6d69 51bd efc5 9abd 5621 bbbc ee01 f93c
00000240: 1e48 50bd 754e f7bc 7fd2 54bc 3e42 f43c
00000250: dd46 033c 27b8 7d3d d411 4cbd 49c5 81bd
00000260: defe 5b3d 02c5 74bc e3e7 be3d 2336 09bc
00000270: d5b3 44bc 40d3 f1bd 852d 80bb 3f7a 37bd
00000280: 80a5 a43c d0fb 983c aa93 8d3c 38f1 2fbc
00000290: 13ae 20bc 9d47 0f3c 3506 c2bc 8e20 a9bd
000002a0: 7e12 aa3d 9a08 6cbc 779a 6a3d 0324 51bd
000002b0: dbbd 9ebd 7730 13bd 8463 0fbd dca5 efbc
000002c0: eaea aa3c 5e1c dfba edc3 ed3c add3 4bbc
000002d0: 6fb0 c63d c7e7 723d 5603 a3bc eb1e 5a39
000002e0: b9c3 a73d fdd1 2abd de3f 9f3d 4f50 7abd
000002f0: 03ab 963d a668 8f3d 0f82 203d 6cd2 0f3c
00000300: 8c0a 803d 162a b03d 3137 c2bc 8656 a23d
00000310: 2df5 bb3c 8a03 66bd fa8f 0b3d 8fd2 833c
00000320: 6055 383c dd05 713c c554 a1bd 8438 0dbc
00000330: 107f 2abd 62e4 93bd 112f a0bd 240c da3c
00000340: 9e24 00bd 7b75 e03d d1cd 0ebd ca8f e63c
00000350: 29f3 603d 0bc2 7fbd 8dfb e33c 0700 0c3c
00000360: ba5d 91bd ca71 653d e20f 61bd fffc 803d
00000370: efa5 32bd fde0 95bd af1b ffbb 97f5 e63c
00000380: e9d7 49bd b27d b1bc e061 813d 8e2b 053d
00000390: 976a 8cbd 4f3e fb3d ffcb 9639 4cf3 22bd
000003a0: b370 2ebd f586 6e3d 5d02 0cbc 4fad 793c
000003b0: 14f1 a2bd 5ebc 2bbd 9180 733d f7b7 2d3d
000003c0: c27a b8bd 030b 783d 7628 ca3d 2114 5dbb
000003d0: 3b19 82bd 3e42 42bc b644 603d 5573 003d
000003e0: b1d6 97bd 1634 143d 27a9 d23d 441d 60bd
000003f0: 2d4a 313d da22 85bd 35ad 9b3d 53f6 a93d
-0.0021132359 -0.0016357577 0.09602862 -0.034902945 0.09161809 0.06827693 0.12633231 0.031945407
-0.022183614 -0.015298189 0.047830917 -0.030873567 0.016039627 -0.042371463 0.091534674 -0.014609031
0.08255252 0.054916695 0.03219152 -0.004832734 0.07056388 0.039674405 -0.01488535 0.036695328
0.064779036 -0.050672326 -0.0006943259 0.036183074 0.053616956 0.055392977 0.0836031 0.0066289078
0.06855096 -0.053022534 0.056398824 0.0664873 0.04543133 0.05854198 -0.04893948 0.09647888
0.11330763 -0.08985374 -0.06253711 0.10695314 0.053693794 -0.06069956 0.05103077 0.074976206
0.04355451 0.05214959 -0.039083127 -0.035082217 -0.007663138 0.07014593 0.048341777 -0.005648408
0.10975306 -0.07108177 -0.034037467 0.059041202 -0.04981963 -0.023165697 -0.0081137745 0.026164673
-0.039393444 0.06183798 0.08984402 0.009785785 -0.029065909 0.06418141 -0.05568647 0.076623
0.036447074 -0.02612085 -0.05372765 -0.020313408 -0.06584713 0.046247136 0.10867982 -0.049358808
-0.044165283 0.01343825 -0.0109927645 0.049294077 -0.046762507 0.043131035 0.03843359 -0.056954056
0.036479365 -0.015013802 0.07863848 0.10301305 -0.009201988 -0.09523691 -0.06666924 0.035392568
-0.00072308956 -0.019155944 -0.05812539 -0.046253327 0.0044623516 -0.020709222 0.009668234 0.02948286
-0.07605004 -0.09046234 0.050996836 -0.0043625236 0.043973282 -0.038840212 -0.06058466 0.064293936
0.028539093 0.0343225 -0.038885847 -0.05689232 -0.03409929 0.0009910311 -0.025043216 -0.014160816
-0.027605785 0.006835637 0.022636252 0.045461513 0.010584751 -0.0642901 -0.009409239 0.06372979
-0.062407006 -0.0066449954 -0.030249884 0.082842566 -0.054424547 -0.012037215 -0.068103634 0.055167135
-0.077111654 0.058876563 -0.068560824 0.029361187 -0.051125932 -0.07557284 -0.022843044 0.030396428
-0.050850026 -0.030188778 -0.012989639 0.029816743 0.008012501 0.0619432 -0.04982169 -0.06336457
0.053709857 -0.014939548 0.09321573 -0.008374724 -0.012005766 -0.11807871 -0.0039116764 -0.044794317
0.020098448 0.018674761 0.017282326 -0.010738663 -0.0098071275 0.008745101 -0.0236846 -0.082581624
0.08304308 -0.014406348 0.057276215 -0.051059734 -0.07751056 -0.03593489 -0.035007015 -0.029253893
0.020863969 -0.0017022004 0.029024089 -0.012440604 0.09701621 0.05930307 -0.019899052 0.00020801618
0.08191628 -0.041704167 0.077758536 -0.061111744 0.07356837 0.07002382 0.039186534 0.008778196
0.06252012 0.08601777 -0.023707958 0.07926659 0.022944057 -0.05615572 0.034072854 0.016091613
0.011250824 0.014710871 -0.07877497 -0.008619431 -0.041625082 -0.07221295 -0.07821477 0.026617117
-0.03128492 0.109599076 -0.03486425 0.028144736 0.054919396 -0.062440913 0.02782991 0.008544928
-0.07097955 0.05601672 -0.054946788 0.06298255 -0.043615278 -0.07318304 -0.0077852826 0.028193278
-0.049278174 -0.021666382 0.06317496 0.03251224 -0.06856268 0.12267744 0.00028762218 -0.039782807
-0.042587947 0.058234174 -0.008545485 0.015239074 -0.07956138 -0.041927688 0.059448782 0.04241177
-0.09007789 0.060557377 0.098709986 -0.0033733922 -0.063524686 -0.011856614 0.054753028 0.03135999
-0.07413996 0.036182486 0.102861695 -0.05471541 0.04328363 -0.06500788 0.07601396 0.08298936

fc.0.bias f4 [32]
00000000: e4dc 46bd 4f1e f2bb ca9e fd39 b9f8 cfbc
00000010: c4f6 633d 8d90 8fbd d818 6c3d 0c6c 193d
00000020: 556e d0bc 5919 a3bd 669c 58bd 2cca eb3c
00000030: 449b a4bd be02 03bd 28f2 1f3d 4621 9f3d
00000040: d602 a8bb 0353 0dbd d4c3 6dbd 39be 0fbd
00000050: e47f 8a3d 1f27 843c 6ed7 a1bd 3757 2abd
00000060: 17d6 153c c494 663b db15 823b a2cf 2f3d
00000070: 7df5 8abd 33e2 81bd c2b3 eb3c e106 12bb
-0.0485505 -0.007388867 0.00048374227 -0.025387155 0.055655256 -0.07009993 0.05764088 0.037456557
-0.025443235 -0.07963819 -0.05288353 0.028782926 -0.08037427 -0.031985037 0.039049298 0.07770018
-0.005127291 -0.034502994 -0.058048084 -0.03509352 0.067626745 0.016131936 -0.07902418 -0.04158708
0.009145281 0.0035183886 0.0039698905 0.042922623 -0.067851044 -0.06341972 0.028772239 -0.0022281932

fc.1.weight f4 [32]
00000000: 5721 823f b0ac 7a3f 2953 833f fe0e 7f3f
00000010: 46a7 873f 0f7a 7b3f 1174 873f c7ff 823f
00000020: f7ae 863f 1cea 863f 4587 773f 9ec8 813f
00000030: 6643 813f 99bf 813f a9c6 833f be88 883f
00000040: 6b00 843f f3ae 843f efdb 873f b2fa 7f3f
00000050: b7d6 853f 758a 863f 1a98 823f b9fe 7b3f
00000060: 6293 793f 9370 793f 19bb 863f d6ca 873f
00000070: f421 7c3f bd60 7b3f aaae 813f d528 833f
1.0166425 0.9791975 1.0259753 0.9963225 1.0597923 0.9823312 1.0582296 1.0234307
1.0522145 1.0540195 0.9669078 1.0139349 1.0098693 1.0136596 1.0295001 1.066673
1.0312628 1.036589 1.0613993 0.99991906 1.0456151 1.0511004 1.0202668 0.9843555
0.97490513 0.974374 1.0525848 1.0608776 0.9848931 0.98194486 1.0131428 1.0246836

fc.1.bias f4 [32]
00000000: 06af cbbd 01ed 063e 65bb 8a3d 84b7 d9bc
00000010: 66ea 363d d08d 933d ddef 4a3d 92d5 0ebc
00000020: ddf3 20be 9b53 503d 2390 493d 97b8 dcbc
00000030: 58b1 05bd 933e 16bd 2908 78bc d48a 0f3d
00000040: e8cc 05be d79d 21bd 9a3c d03c 8566 88bb
00000050: 761e 0fbc cf0a 043d 49bd 1abd 3f21 0abd
00000060: 7777 b83d 0c13 b0bd bbf7 db3b ae37 333d
00000070: fe54 453d 978f 003e 4a86 a93d 00dc 29bd
-0.099454924 0.13176347 0.06774024 -0.026576765 0.044657134 0.07204783 0.049545158 -0.008717911
-0.15718026 0.050860982 0.049209725 -0.026943488 -0.03263983 -0.03668077 -0.015138664 0.035044506
-0.13066447 -0.03945717 0.025419522 -0.004162612 -0.00873529 0.03223687 -0.037778173 -0.033723112
0.09007161 -0.08597383 0.0067128814 0.043754272 0.048176758 0.12554775 0.08277567 -0.041469574

fc.1.running_mean f4 [32]
00000000: 2124 8940 17c2 67c0 402c 97bf 12b2 2b3f
00000010: f34d 5abf 6ad9 1ac0 d3a3 b53f 1f6c a63f
00000020: 1bff 9d40 084a e1be 235e 22c0 e743 1140
00000030: c384 ce3f 3ca7 07bf eeae 3b40 9e69 6e3f
00000040: 0ee6 4940 6a61 2640 9947 7a3f 3468 953e
00000050: 3781 fc3e 71ec db3f 3eb4 5b3f 1e18 e43e
00000060: a3f3 5cc0 ca95 abbf eb9f 79be 03a4 223e
00000070: a8fa 80c0 789b 1ac0 7c63 8ac0 289f cc3f
4.2856603 -3.6212213 -1.1810379 0.6706859 -0.8527519 -2.41952 1.419062 1.3001746
4.937391 -0.44001794 -2.5369956 2.2697694 1.6134266 -0.52989554 2.9325519 0.9312991
3.1546664 2.5996957 0.977655 0.29181063 0.49317333 1.7181531 0.858219 0.4454965
-3.4523704 -1.3405087 -0.2437741 0.15882878 -4.0305977 -2.415739 -4.324644 1.5986071

fc.1.running_var f4 [32]
00000000: 740b 1944 cbe2 d244 ae96 2344 42a9 6a44
00000010: 7ac4 6344 567d 9e44 7a87 3c45 df3d b044
00000020: 6b50 2e44 c1a2 0345 2247 6644 e9c7 8844
00000030: fe6f 6745 96af fe44 369f 6344 5e24 3844
00000040: 1102 1044 b55d 6244 756b 3144 812c 0d45
00000050: 5501 9e44 f704 2345 1f31 4444 ce66 3344
00000060: abda 3a44 7329 9343 6de5 c644 6251 3545
00000070: 772b 0444 d9fc 6b44 3b92 fc43 de08 3744
612.17896 1687.0873 654.3544 938.64465 911.06995 1267.9167 3016.4673 1409.9335
697.25653 2106.172 921.11145 1094.2472 3702.9995 2037.487 910.4877 736.56824
576.0323 905.4642 709.679 2258.7815 1264.0416 2608.3103 784.7675 717.6063
747.4167 294.32382 1591.1696 2901.0864 528.67914 943.95074 505.14243 732.13855

fc.3.weight f4 [3, 32]
00000000: 140e bdbd 40e3 0b3e 78f3 0e3e d1d7 dd3d
00000010: c7cd 1abe 9fbf 82bc 5f6f 04be aabc 83bc
00000020: 7754 55be d307 d23d 8c9c b03d 257f 8cbd
00000030: b74c 6bbd a220 263c 8ef9 74bd 336b 5bbe
00000040: 7d0e 6ebd 0a85 8dbd b4f2 3abe f064 21be
00000050: 0d82 bdbd 5754 5abc ee2b 3dbd faf3 42be
00000060: 4c97 e9bc ed28 113d 36d6 20be 4761 84bd
00000070: b978 473c 4c4e 3f3d d3c2 e83d cd77 8ebd
00000080: d0e2 d0bd 3dff 16be 4fae 043e 94ce b53d
00000090: 70f2 9e3d 40b6 b7bd cc15 4c3e bc6b 7fbd
000000a0: b449 9fbd 965d 3f3e 0a7c f6bc a844 00be
000000b0: 542d 783d ac9b 203e a11b 49be b5c3 85bc
000000c0: 57c6 003d a9ba 0cbe 1c5c eb3d 575c acbd
000000d0: b85d 073e 905a 473e 85f5 26be 9b18 ca3b
000000e0: 4e78 24be 286c ecbc 282e 183e beeb 6e3e
000000f0: 7e52 bfbd 16a0 b9bd e3f3 24be 3b20 093c
00000100: 76c8 063e 5046 23be b0ef 74bd c55c 3a3e
00000110: 651a 72be 4009 33be e782 5cbe fe5a 063e
00000120: 08cd 1d3e fa1c ceba 16e2 3cbd c5a1 703d
00000130: cc9f 913c c4e3 c43d ffb1 a93d b020 7bbe
00000140: a940 453e a806 413e b0bb fdbd 5819 29be
00000150: 1dff 053e 60da b73c 9174 2c3e 4685 b03d
00000160: 2573 abbd 549f 20bd 5aed 7e3d b9da fbbc
00000170: 41b5 4bbe 0cc5 a7bd 4082 56bc d350 e93d
-0.09231201 0.13660908 0.13960063 0.10832179 -0.1511756 -0.015960513 -0.1293311 -0.016081173
-0.20833002 0.102553986 0.08623609 -0.068601884 -0.057446208 0.010139616 -0.059808306 -0.21427612
-0.058119286 -0.06910141 -0.18256646 -0.15761161 -0.09253321 -0.013325772 -0.046184473 -0.19038382
-0.028514527 0.03543942 -0.15706715 -0.06463867 0.012174779 0.04670553 0.11365285 -0.06956444
-0.10199511 -0.14745803 0.12957118 0.08877292 0.07761085 -0.08970308 0.1993019 -0.062358603
-0.0777773 0.18688044 -0.030088443 -0.1252619 0.060590103 0.15684384 -0.19639446 -0.016328672
0.03143915 -0.1374308 0.11492178 -0.0841605 0.13219345 0.1946814 -0.16304596 0.006167484
-0.16061518 -0.028860167 0.14861357 0.23332116 -0.09341906 -0.09063737 -0.1610866 0.008369501
0.13162407 -0.15944791 -0.059798896 0.18199451 -0.23642881 -0.17483997 -0.2153431 0.13120648
0.15410244 -0.0015725188 -0.04611405 0.058748025 0.017776392 0.09613755 0.08285903 -0.24524188
0.19262947 0.18850195 -0.12389314 -0.16513574 0.13085599 0.022442997 0.16841342 0.0861917
-0.083715715 -0.039214447 0.062238075 -0.030743944 -0.19893362 -0.081918806 -0.013092577 0.11392369

fc.3.bias f4 [3]
00000000: 922e 57bd cb66 6d3c 5eca d63d
-0.052534647 0.01448984 0.10487817
